double_dqn/checkpoint_ddqn.pth (torch_old, 62708 bytes, 8 tensors)

hidden_layers.0.weight f4 [128, 37]
00000000: 9611 603d 5b2a 203e 6505 e63d 070a 80be
00000010: 4795 11be e54a 273d ac65 87bd a6ed ad3e
00000020: 0f1e 08be 2e7e 433c 02b9 0d3e 62da 443e
00000030: 6900 a9be 1e9b 42be 6116 e3be 299a b4be
00000040: 879c 0fbe a982 e93e 57dd 633e abcf a13e
00000050: 0e01 803e f14d 26bd e0bc 113e 3834 ee3d
00000060: 76d2 a63d 9dc9 2dbd a5d8 543e c853 633d
00000070: ba53 8cbd 98a0 32bf 9c5c e5bd 470d e93d
00000080: 05e7 e13b a39f d13d 3f97 7abe 56d9 fcbd
00000090: 06c3 1ebd 6a16 843e cb73 893e 2220 2e3e
000000a0: 54bb 7a3e 8b20 4dbe a3d5 ed3d 6b91 163c
000000b0: 604c cf3d e352 c33c 3f79 f1bd 37b5 cbbc
000000c0: 52fd 573e 8689 773e 65ef 8e3e 3d7b 503e
000000d0: 9e81 933e bb9a 813d 075f b73e 784b 1abd
000000e0: 6e73 383b 2c5a 46bd 3533 dc3d e54e e3bc
000000f0: 8410 a13e a283 a83e 58b7 af3d 2fae 163e
00000100: 9fd0 793e f76e 453e 54a6 30be b66c 4f3e
00000110: 6836 b63e 091b c63e 2e9d 9dbe 80c3 a8bd
00000120: 3c32 213e 3655 473d 39a9 51be 203c 6ebd
00000130: af24 453e cec1 d23e 70e7 283f 1820 1ebf
00000140: 8072 a739 aea4 d93e bebc 833d df8b 6d3e
00000150: d0fb 2a3d 80d5 c9bd 7277 9f3d fafc 57bb
00000160: 6e41 b83d 041e b6be 506f 8e3e 1f57 77bb
00000170: fc1b f43e f469 773f 34de 8dbd b188 783b
00000180: 61a6 f03d f9a8 bdbe 3d5e aabe 5168 1dbf
00000190: eece 903d 0398 9e3e d993 0c3f 58cf 4d3f
000001a0: 0039 b1be e0b4 8bbd 83bb 223e 078d 20be
000001b0: ab82 853e 689b 44bd f664 d4bb e026 973c
000001c0: 3797 a83e 7ecb a73e dfb8 933d ec48 0cbe
000001d0: a3cc 7ebe 244d eb3e 9502 ba3d ac5d a0bd
000001e0: 80aa 953e 49ce 4d3d 3ce6 1dbe 4959 ad3e
000001f0: a8ef 663e 5e96 80be b8b9 de3e 95ef 9dbe
00000200: c292 30bd afb1 8ebe 8ac0 24bf 5503 3c3e
00000210: 09c1 06bd c9f7 d63d 2286 6f3e f0f5 22bf
00000220: 5fff 7d3d f87d ce3b 8d8b 363d 6a20 c23e
00000230: a79a 243c 7a79 093e e42c e93e ae58 523e
00000240: 7b1a 7ebe 6a04 d3be 1e3a 32be 03ba 1bbd
00000250: 39a6 413c db8b 80bc b48a 9bbd 8267 033e
00000260: e3f1 8abd 953d 183f 80ff e03d 8c2d 88be
00000270: 5255 8dbd a823 30bf 643e c13e de29 bfbd
00000280: 03ce 37be 351e 1c3e c9fc e6be a4fd 023b
00000290: 363e 813e e03a 0d3e ebda 63be bdf4 d53e
000002a0: 3b88 11be 5e88 56be 0971 003f a322 133e
000002b0: ab20 833e 1e46 43bc a75b e63d 8ea7 8c3e
000002c0: 4fc3 1d3e e371 373d 8760 b63e 9e87 1abe
000002d0: c624 a03d 1987 1a3d c993 1abe 029f c8bc
000002e0: c675 68bc 771c 243e b186 f43d b98d 1a3e
000002f0: 9754 973d 64cb 07bd 848e 233e 55a7 9c3e
00000300: 6dcf 403e c19e 863e 37cd 3a3d e96d 7c3d
00000310: 096b 433d c778 413e d90a e53d 8425 593e
00000320: 8814 213d ad42 523e 4d41 053e d325 5d3e
00000330: dc0c 9e3d c3c4 8a3e acb5 0e3e 9232 3d3e
00000340: 60c8 ac3e 64c8 343d e55b 4f3e 93cc 8bbb
00000350: 462b 393e 265f 853e 2a15 983d 2e77 153f
00000360: 5c49 5bbf 217e 94bf b5bb 4abe 1ab0 5cc0
00000370: 72b0 ea3c 2a4b acba d7de fa3e e6ab 99be
00000380: fd4c 7e3d 4aaa 2dbf 6aa5 02c0 f6a4 72be
00000390: d1eb 2d3e cd54 f0bc 98df 983e 8e70 10be
000003a0: 157f df3b f62c a73d 479e 823e 8d07 8d3e
000003b0: 8ffc be3b 2969 493e 9007 29be ae04 0d3e
000003c0: 161d 823e 6380 e13e 6f8f edbb d4b5 cf3c
000003d0: 572a b53e 0d79 d6bd 4345 053f 0f65 a8be
000003e0: af15 903e 6575 c33d a276 5bbe 84e7 033e
000003f0: b9a4 d23d d67c 97bb 7e39 5d3d 4f31 c23e
0.05470427 0.15641157 0.11231498 -0.2500765 -0.14217101 0.04084291 -0.06611189 0.33970374
-0.13292716 0.011931939 0.13840106 0.19223931 -0.33008125 -0.19004485 -0.4435301 -0.35273865
-0.14024554 0.45607498 0.22252403 0.3160375 0.25000805 -0.040601674 0.14232206 0.11631054
0.08145611 -0.0424286 0.20785768 0.055499822 -0.06851907 -0.69776297 -0.111993045 0.113794856
0.0068939948 0.102355264 -0.24471758 -0.12346141 -0.038760208 0.2579835 0.26846156 0.17004445
0.24485523 -0.20031945 0.116130136 0.009189944 0.10121989 0.023843234 -0.11790704 -0.024866683
0.21092728 0.24173555 0.2791702 0.20359512 0.28809828 0.063283406 0.35814688 -0.03766963
0.0028144973 -0.04842584 0.107519545 -0.02774758 0.31457913 0.32912928 0.08579892 0.14714883
0.24395989 0.19280611 -0.17250949 0.20256314 0.35588384 0.386925 -0.3078398 -0.08240414
0.15741819 0.048665248 -0.2047471 -0.05816281 0.19252275 0.41163486 0.65978146 -0.6176772
0.0003193803 0.42508453 0.06432484 0.23197888 0.041744053 -0.09855175 0.07786454 -0.0032957182
0.08996855 -0.35569775 0.278193 -0.0037741137 0.476776 0.96646047 -0.069271475 0.0037923271
0.11750484 -0.37042978 -0.33275023 -0.614873 0.07070719 0.3097535 0.549131 0.80394506
-0.346138 -0.068216085 0.15891843 -0.15678798 0.26076254 -0.04799977 -0.006481762 0.018451154
0.32927868 0.3277244 0.07212996 -0.13699692 -0.2488275 0.4595729 0.09082524 -0.078303665
0.29231644 0.050245557 -0.15419859 0.33857182 0.22552359 -0.2511472 0.43501067 -0.3084685
-0.04310871 -0.27869937 -0.6435629 0.18360646 -0.032898936 0.1049648 0.23391011 -0.6365652
0.06201112 0.0063016377 0.04456668 0.37915355 0.010046638 0.13425246 0.4554206 0.20541641
-0.24814789 -0.41214305 -0.17404982 -0.03801919 0.011819416 -0.015691688 -0.07594815 0.12832454
-0.067844175 0.59468967 0.10986233 -0.2659725 -0.06901039 -0.6880441 0.37742913 -0.093341574
-0.17949681 0.15245898 -0.45114735 0.0019987607 0.25242776 0.1379199 -0.2225148 0.41788283
-0.14212124 -0.20950457 0.5017248 0.14368682 0.2561086 -0.011918573 0.1124795 0.27471584
0.15406536 0.044786345 0.3562052 -0.15090796 0.07819514 0.037726495 -0.15095438 -0.024489883
-0.014188236 0.16026483 0.11939753 0.15093125 0.07389181 -0.033152953 0.15972334 0.30596414
0.18829127 0.26292995 0.045605864 0.061628256 0.0477095 0.18893729 0.1118371 0.21205717
0.03932622 0.20533247 0.13013192 0.2159646 0.077172965 0.27103242 0.1393649 0.18476322
0.33746624 0.04413642 0.20249899 -0.0042663305 0.18082914 0.26049155 0.07425912 0.5838498
-0.8565881 -1.1600991 -0.19798167 -3.4482484 0.028648589 -0.0013144959 0.48998138 -0.3001396
0.06208514 -0.67837965 -2.041346 -0.2369574 0.16984488 -0.029337311 0.29858088 -0.14105436
0.0068205693 0.081628725 0.2551138 0.27544823 0.005828447 0.19669022 -0.16506791 0.13771316
0.25412816 0.44043264 -0.0072497646 0.025355257 0.35383865 -0.10472307 0.5205881 -0.32889602
0.28141543 0.095438756 -0.21431974 0.12881285 0.102853246 -0.004623036 0.054009907 0.37928244

hidden_layers.0.bias f4 [128]
00000000: 8ad2 7dbe a1ad 5a3e 1844 66be bd1a 96be
00000010: d4ba 23be 0896 47be adf0 3f3d fb02 9d3b
00000020: c610 f4bd 31f4 4cbe f37a ffbd 6187 0ebe
00000030: 5bc4 39be 8348 8abc b61d 5fbe 40e8 443e
00000040: a22f a8be 80a1 2abe 4288 863c baa2 5cbe
00000050: f663 b0bd fc50 f23d ed06 d53c 21b3 3fbd
00000060: ae00 2f3d e61c 7c3e 67be 943d c162 32be
00000070: 04c3 13be 0b3d 02be 4ea5 123d 2ed4 3038
00000080: a531 95bd 2e88 04be a3c1 38bd 7dd6 c8be
00000090: cd8f c93e 102f 81bd 1f7c 1bbc a430 7dbe
000000a0: 9e91 cc3d 2f19 083d 8030 f23d 3b42 e9bd
000000b0: 0129 abbd 674b 3ebe c78b a33e 8f93 68be
000000c0: 4832 96be d9f8 773b d4cc ccbd 2071 f63d
000000d0: f211 923d dc25 963d f596 5bbe 23ac 9c3e
000000e0: a1da 70be 455b c33e 808d 9b3c 56de febe
000000f0: 8a1d 97bd ab4d bcbc 7752 49bd a842 89be
00000100: 55e4 073e 05e9 5b3d f2c1 4d3e 7bc8 ac3d
00000110: 4ff5 44be a519 55be 7525 b5bd eecb 9cbd
00000120: 836f 4c3d ee44 03bf d7ed f6bc c9cf d03c
00000130: ce1c df3e 3702 d8bd d30e 80bd 14d1 153d
00000140: 6de4 763c 36a0 23bd 275a 00be 795c 5abe
00000150: d3cf 3dbe 5b2f 613d ca69 96bc 81a7 e3bd
00000160: c2cb d6bd e3fd 5cbd dba2 31bd cebf 0dbe
00000170: ee74 70be e1fd 3dbe 29d7 8ebd 82c4 1bbd
00000180: c06a edbd 52cc 37be 23cf 913d 8ab7 363e
00000190: 2020 0dbe 0a0b e3be 68a6 8b3c 3c26 f53d
000001a0: d0e6 8abe 3c90 03bf 55db c7be 67bf c33e
000001b0: 86e2 a0be 8ff9 f1bd 77ed 4b3c 9976 19bd
000001c0: 57ed 87be 8c1d 62be 413d f5bc a4c1 da3c
000001d0: b5ce 263e c86f 883d 8ee3 bcbd 6171 40be
000001e0: 3c90 f9bd a07a 573e d794 94be d4eb 3dbe
000001f0: 075f d83d 5eb3 b23d 5e1b 2fbd 822c 10be
-0.24787346 0.21355297 -0.22486913 -0.29317275 -0.15989238 -0.19490826 0.046860386 0.004791615
-0.11917262 -0.20015027 -0.124746226 -0.1391883 -0.1814131 -0.01688028 -0.21788678 0.19229221
-0.3284884 -0.1666317 0.016422395 -0.2154645 -0.08612816 0.11831853 0.026004279 -0.04680169
0.042725258 0.24620399 0.07262879 -0.17420484 -0.14429861 -0.12718599 0.035802178 4.2159278e-05
-0.072848596 -0.12942573 -0.04510654 -0.39226142 0.39367524 -0.063078046 -0.009490042 -0.24725586
0.09988712 0.033227142 0.11825657 -0.113895856 -0.0835743 -0.18583451 0.3194258 -0.22712539
-0.29335237 0.0037837534 -0.10000005 0.12033296 0.07132329 0.0733144 -0.21444304 0.3060008
-0.235209 0.3815557 0.01898837 -0.49779004 -0.07378681 -0.022986254 -0.04915091 -0.26808667
0.13270696 0.05368902 0.20093516 0.08436676 -0.19234203 -0.20810564 -0.08845035 -0.07656084
0.049911033 -0.51277053 -0.030142708 0.025489705 0.43576664 -0.105472974 -0.062528275 0.036576346
0.015069109 -0.03994771 -0.1253439 -0.21324338 -0.1853631 0.054976802 -0.018360991 -0.11115933
-0.104880825 -0.053953063 -0.0433682 -0.13842699 -0.23482105 -0.18553878 -0.06974632 -0.0380292
-0.115926266 -0.17949036 0.07119586 0.17843452 -0.13781786 -0.4434436 0.017047122 0.11970183
-0.2712922 -0.5139196 -0.39034525 0.38231966 -0.31422824 -0.11815178 0.012446753 -0.03746662
-0.26548263 -0.22081584 -0.029936435 0.026703663 0.1628979 0.066619456 -0.0922309 -0.1879325
-0.12185714 0.21042871 -0.29019806 -0.18546993 0.10565 0.08725618 -0.04275071 -0.14079478

hidden_layers.1.weight f4 [64, 128]
00000000: 27e0 dabd 902e b6bd 66eb 8bbd 3035 3f3d
00000010: 93bb 1e3d fdbe a93b d601 0d3d 56c6 293d
00000020: 6949 173d d804 d33c 18da 383c 9b12 a43c
00000030: 13ac 193d 1a29 a5bd dfbb 20bd db59 d93c
00000040: b9b0 97bc fcd3 d8bd 6bb6 aebd d719 a2bd
00000050: fccc 2f3d acd6 023d 16d3 a1bd 140c 653b
00000060: 512a 6abd 266c 2b3d 2e16 e5bd 15cd a8bd
00000070: 3deb d6bd b451 e23c 5394 97bd 721b 343d
00000080: ddc9 a73c a996 64bd d967 5dbd 64af 28bd
00000090: 2c52 363c 5902 8bbd ffb9 803b a009 d3bc
000000a0: c86b cabd 9227 cdbd 72bb b1bd d7a7 673c
000000b0: 614a d9bb 4783 bbbc 70fc b7bd 021d eabd
000000c0: fc24 41bd e154 c7bd 8728 fabd 150a cdbd
000000d0: 54ee 9ebd 7123 babd 22c7 45bb ece1 49bb
000000e0: 2a67 3a3c 5b0d ddbd 8221 e93c fb92 e6ba
000000f0: 190e 983c 3dc7 5cbd 6243 e63c 77f7 d5bd
00000100: fbb5 d43a 5eb7 1e3d 4d00 0b3d b606 d7bd
00000110: 7114 dcbc 33e6 a9bc 4938 923c 7039 66bd
00000120: f8b8 13bd 706d fdbc 66ec afbc 619f debc
00000130: 24d9 8fbd fcbd b1bd 0d9e 2e3d 8fbf 363d
00000140: c833 05bd 751b 503d 7c58 5e3d 1101 91bd
00000150: 978d 22bd 9cdc b6bd 0873 7ebc ba1e cebc
00000160: 0bc8 c4bc 929c 333d b270 80bd 3bad 8fbd
00000170: a931 bebd 7c2f 84bd b793 873d a9fe 27bd
00000180: c87c 51bd 0e2d 233d 99b8 60bd 9a67 91bd
00000190: 76f6 823d a0f4 63bd 61ff 81bd bdfe 0fbd
000001a0: 0f0a e4bc e23a 023c d090 bf3c 3601 94bd
000001b0: 0719 873d a5d8 ddbd 6254 f9bb 56c4 38bd
000001c0: d521 0dbd 4754 a93d c11a d7bd b49d bbbc
000001d0: fb49 ce3c 35f2 3e3d 5809 99bd 8d0b 7cbc
000001e0: fc4a 5d3d b5ba ecbd e4df 7f37 4f1f 9bbd
000001f0: 539f 3abc 4fa5 03be 2637 943c 5938 3bbd
00000200: 9ec3 f23c cdbe 99bc f555 20bd bf7c ecbc
00000210: f651 c6bd 18a2 71bd 3b4e 86bc 75c1 a0bd
00000220: 19d1 783d 69ca b1bd 6d70 50bd 2335 4dbc
00000230: 6c10 d7bd 0386 b2bc bdf2 46bd 5fc1 a7bd
00000240: 0d9b 48bc 5c9f 863d 2543 153c 1645 4e3d
00000250: 0d88 e3ba 65c8 87bd 6f11 1e3d 4a1e 4fbd
00000260: d355 c6bd 07db 973b fbfd cc3c e48a 89bd
00000270: 54d3 8b3c bd1b 57bd dcd7 a2bc 99a2 4cbd
00000280: c1ea e6bc 3816 c7bd 1f86 a2b9 5fab 4cbd
00000290: 8b06 2d3d 5592 4cbc 3a4b c9bd e1ea b3bd
000002a0: 216a 99bd 63b6 a53c b0a2 a2bd 3a73 86bd
000002b0: 7367 b0bc 6acb b9bd a060 84bd f9d0 923d
000002c0: a265 6bbd 8f90 87bd a0c2 2a3d b557 213c
000002d0: c017 4f3d 4e3d bcbd cfbe c03b 3fbf 20bd
000002e0: 3054 53bd a722 20bd 3b70 c8bd 9d63 1e3d
000002f0: 31f8 11bd 7c98 e8bd ba95 5c3d 2fb0 273d
00000300: a832 c23b e0a0 823d 8229 953d 60c2 7c3d
00000310: 781f 8d3d 7f55 4b3d 047c 6c3b ac69 f9bc
00000320: 4b7c 92bc a51d 89bd 480d 7e3c 1814 70bc
00000330: fe22 9dbc 295f 94bd a73e 64bd fb64 223d
00000340: ad7c 08bc 6c9d 55bb 8ec5 c0bd f896 82bd
00000350: 077c 16bd 3c5e 1ebd db42 1e3d 64a4 50bd
00000360: d658 5b3d 9576 51bd d299 133c d31b bebd
00000370: efce 993b a8d1 c1bd 9da4 99bd edd2 5abd
00000380: c703 d63c c338 84ba b628 883b 7284 0ebd
00000390: 87e2 493d 5653 833d d2fd d7b9 b3f2 7b3d
000003a0: 5dab bdbc 96b9 5fbd 8b6b 54bc 75bd 023d
000003b0: 58d9 14bd 811c bbbd 499c 503c 1130 e7bc
000003c0: 9b56 83bd 40d2 863d 1c31 c2bc a138 94bd
000003d0: 0cfc 9dbd 9e02 333d 45a0 383d ebc5 a0bd
000003e0: 3e4a afbc fcf5 e5bc 4e21 0c3d 2c35 95bd
000003f0: 3890 a4bc ba68 3b3c aa7c b93c a3aa 0b3b
-0.10687285 -0.088956 -0.06832008 0.046681583 0.038753103 0.0051802383 0.03442558 0.041448914
0.036935244 0.025759146 0.011282466 0.020028403 0.03751762 -0.0806448 -0.039241668 0.026532104
-0.018516885 -0.10587308 -0.08530887 -0.07915085 0.042920098 0.03194301 -0.079015896 0.0034949826
-0.057169262 0.041851185 -0.11185871 -0.08242241 -0.10494087 0.02762685 -0.074013375 0.043971486
0.020481998 -0.055807743 -0.054054115 -0.04118289 0.01112799 -0.06787557 0.0039284225 -0.025761425
-0.09883839 -0.10017313 -0.086783305 0.014139137 -0.006631181 -0.022889746 -0.089836955 -0.11431314
-0.04715441 -0.09732986 -0.12214761 -0.100116886 -0.07760301 -0.09088791 -0.0030178507 -0.0030804826
0.011377135 -0.10793563 0.02845836 -0.0017591411 0.01856141 -0.053900946 0.028108303 -0.10447591
0.0016228551 0.03874909 0.033935834 -0.10499327 -0.026865216 -0.02073965 0.017849104 -0.05620712
-0.03606507 -0.030935973 -0.021475028 -0.027175607 -0.07023838 -0.08678815 0.042631198 0.04461628
-0.032520086 0.050807435 0.054283604 -0.070802815 -0.03968581 -0.08928797 -0.015530355 -0.025161136
-0.02402117 0.04385049 -0.06271495 -0.07015463 -0.09286816 -0.064543694 0.06619971 -0.041014347
-0.05114439 0.03983789 -0.054863546 -0.070998386 0.06394665 -0.055653214 -0.06347538 -0.035155047
-0.027836828 0.007948609 0.023384482 -0.072267935 0.065965705 -0.10832337 -0.007608936 -0.045109116
-0.034456093 0.08268028 -0.1050315 -0.022902347 0.025181761 0.046617705 -0.07472485 -0.015383613
0.05402659 -0.11559049 1.5251313e-05 -0.07574331 -0.011390525 -0.12856029 0.018092703 -0.045708034
0.029634293 -0.018767739 -0.039144475 -0.028868077 -0.096836016 -0.058992475 -0.016394725 -0.07849399
0.060746286 -0.08681185 -0.050888468 -0.012524876 -0.10501179 -0.021792417 -0.048571337 -0.081911795
-0.012243998 0.06573364 0.009110247 0.050358854 -0.0017359272 -0.06630019 0.038590845 -0.050565995
-0.096843384 0.0046342644 0.025023451 -0.067159444 0.017068543 -0.052516688 -0.01987832 -0.049959753
-0.028188111 -0.09721035 -0.00030998976 -0.04996812 0.042242568 -0.01248606 -0.098288015 -0.08785034
-0.074909456 0.02022857 -0.079411864 -0.065649465 -0.021533703 -0.09072001 -0.06463742 0.071687646
-0.05746997 -0.06619369 0.041689515 0.009847571 0.05055976 -0.091913804 0.005882121 -0.039244886
-0.05159396 -0.039095547 -0.09787031 0.038669217 -0.035637084 -0.11357209 0.053853728 0.040939506
0.005926449 0.06378341 0.072833076 0.061708808 0.06890768 0.049642082 0.0036084661 -0.030445896
-0.017881533 -0.06695107 0.015506096 -0.014653228 -0.019181725 -0.07244713 -0.055723812 0.039647084
-0.008330506 -0.0032595051 -0.094126806 -0.06376451 -0.036739375 -0.038664088 0.038637977 -0.050938025
0.053551517 -0.05113848 0.009008842 -0.09282651 0.004693858 -0.09463817 -0.075021006 -0.05342381
0.026124848 -0.0010087717 0.0041552437 -0.03479428 0.0492883 0.064123794 -0.00041197106 0.061510753
-0.023153001 -0.054620348 -0.012965093 0.03191896 -0.036340088 -0.09136296 0.012732574 -0.028221162
-0.06413003 0.06583071 -0.023705058 -0.072373636 -0.0771409 0.043703668 0.04507472 -0.0785025
-0.021397706 -0.028071396 0.03421145 -0.07285532 -0.0200883 0.011438543 0.022642452 0.0021311424

hidden_layers.1.bias f4 [64]
00000000: 8ddd 9bbd 6d2b aabd 9cf5 d8bc 8ee4 843e
00000010: 5121 a73d 91af 8bbd f111 33bd 3eb6 c33c
00000020: 197a 7b3c 92bb 3a3c b3ab b2bc 37a4 a4bd
00000030: 483c 1d3e e069 bdbd c301 cebd 9e29 f43c
00000040: 616f 0a3e 9a92 8c3a 275e 0ebd 8476 38be
00000050: 3bc0 c03e 9ad3 b03c 3b46 5abd 918b d93d
00000060: 18a5 5f3d 646a 4d3d 3f6b 8a3b e331 f43e
00000070: fc58 18bd 910d 153e 8cbb 173e 9586 263e
00000080: ac1a 393d 2e21 4f3e 6fe2 133d 3e2d 30bc
00000090: c689 0cbc 961f 983b 6b2d 313d d8df a63e
000000a0: b576 82bc 0463 0e3f 13dc 1d3e acde ffbb
000000b0: 9782 2c3d ab0d af3d 96c6 6cbd 0c9d bdbd
000000c0: f1ca 9f3b e665 e9bc d768 953d 2db8 3fbd
000000d0: b243 aebd bcc9 90bc fd17 2c3c 0667 423e
000000e0: 35d0 db3e 8f5d 32bd 3a5c 693e ad5d bc3d
000000f0: 7957 96bc 0d14 0f3d 313e 8dbd 85be adbd
-0.07610617 -0.08309064 -0.026484303 0.25955623 0.081606515 -0.06820596 -0.043718282 0.02389061
0.015348935 0.011397259 -0.021810388 -0.08039134 0.15355027 -0.0924871 -0.1005893 0.029805
0.1351905 0.0010724843 -0.03475776 -0.1801396 0.3764666 0.021585274 -0.053289633 0.10622323
0.054600805 0.05015029 0.0042242105 0.4769431 -0.037194237 0.14555956 0.14817637 0.16262276
0.045191452 0.20227501 0.036104616 -0.010752974 -0.00857777 0.004642437 0.043256205 0.32592654
-0.015925745 0.55619836 0.15415983 -0.007808527 0.042116728 0.08547529 -0.057806574 -0.0925847
0.0048764874 -0.028490972 0.07295387 -0.046806503 -0.085090056 -0.01767432 0.010503766 0.18984613
0.42932287 -0.043546256 0.22789088 0.09197555 -0.018352257 0.03493123 -0.06896628 -0.08483604

hidden_layers.2.weight f4 [32, 64]
00000000: 1c96 8e3d 3a26 803d 8740 1e3d 75de 00bd
00000010: eb73 c2bc e0e9 b4bd 3295 ae3d c6cf a7bd
00000020: 8287 bdbd 6e31 cbbd 143d ae3d c82d b93d
00000030: 8647 aebd 5c67 dc3d b271 373d 6eb5 fa3c
00000040: 2231 c0bd 8b0e 15be d018 913c ef6b 663d
00000050: 8eed 36be dd36 903d caed 933d c0c0 0c3b
00000060: a6e7 3dbe 2db2 d3bd daae 8e3d ea25 e7bb
00000070: 9aa1 cabc f894 44be ea1d 82bd 8fcc ab3d
00000080: 01ab 8f3d fbf5 3f3d 8836 0b3d d7b1 93bd
00000090: d335 42bd 5519 14bd 2098 aabd 187e 143e
000000a0: 763c a03d 2b3b 8c3c 020a 03be 6674 b63d
000000b0: 41a8 4ebd 2c2f 913d 2c6b d53d 55a4 04bd
000000c0: a585 363d 87ac 41bd 61df a6bd 8bfa 08bd
000000d0: f675 f3bd f473 223d bb2a 5f3d 0266 463d
000000e0: 75b6 0dbe 8dd6 173d 0491 a73d fe98 e43d
000000f0: 1aa1 2cbd cb7b 183d 783c 5b3d db6f 53bc
00000100: 9059 383c 9098 9e3d 3bbf 3f3b 6bf0 36bd
00000110: ac9d 5c3d 34f7 883b c6eb 19bd 08c7 a2bc
00000120: 983d 9c3d 45cb e83d ac2b 07bd 42cc bc3d
00000130: 9b18 ee3d b66b 963d fcb7 6a3d d019 e7bd
00000140: 241f 82bd 2598 7cbd 8239 f93d 05b3 8a3c
00000150: e397 ddbd 8206 eebd ea82 d4bd 8b73 c2bd
00000160: 0a4e a3bd 75ad 8ebd e489 b53d c25e 80bd
00000170: 10d6 e43d bae8 18bd ba10 dcbd 79b3 4cbd
00000180: a150 6fbd 6d4f c4bd df65 f7bd 00c0 8e3b
00000190: cac5 d3bd 9928 1abd f893 06bd 081d 9bbd
000001a0: 200c 5cbc c1bb dabd 17ba 2cbd d1fd d13d
000001b0: e0bb d83d 16e3 023b b020 ee3c 61b0 d03d
000001c0: a078 eb3d dae7 92bd 8646 793c e858 c1bc
000001d0: 4f1c b8bd 9826 d13d d7b0 b83d a08a 9b3a
000001e0: 911f d23d 038c ec3c 38cd 953d 791f 343d
000001f0: e757 7e3d e99c 253d cc0a 7c3d 12f5 e03d
00000200: 0209 363d 31bc b5bd 9860 153d 83b3 953d
00000210: 2706 a63d e324 943d 2a54 50bd 0aab bc3d
00000220: d29b 533c 39a6 b2bd 80dd 99bb d350 ac3d
00000230: 5307 23be 652f 08bd 7076 9e3d db8a 70bd
00000240: 1600 94bd faeb 85bd fbe1 1d3d 652a d7bd
00000250: 69f0 12bd 4266 123d d84b ff3c 7fde aebc
00000260: e649 3e3d ef21 89bc 6dbb 903d a3ea f53c
00000270: de21 c7bd f6c6 6fbd f13d a13d 01ab 0dbd
00000280: 684c 48bd 52d8 16bd 1e62 29bd 6692 6bbd
00000290: c9f4 0c3c da83 953d 57a3 583b 47ac a63c
000002a0: 30bd b93d 048c 09be c25d 10be 0a6f fabc
000002b0: d79f d13c 7344 e4bc 8ba8 81bd 21f5 c3bd
000002c0: 6838 45bc 7265 853d e3a2 38bc c99f b53d
000002d0: c5c9 83bd 7edf d23d c81f bebd eb22 653d
000002e0: 2607 11bd 8449 d83d 4807 c73d 5612 9dbd
000002f0: 8891 39ba 0001 34bd 6e46 033c 33bc 94bd
00000300: 90f7 edbc 8e2a 9bbd fce8 9b3d 116a 7b3d
00000310: 58f1 0abb c04f 79bb 5602 c0bd 51e1 04be
00000320: 0a0b e6bd 3814 c7bd 5ca2 d2bd f00f 703d
00000330: e32c 06be 845b 753d 27a2 993d d73c 86bc
00000340: 30a0 c03b 678a 673d c825 e8bd 9e61 a63d
00000350: e201 b13d 2049 f43d 18df 47bd ae43 793d
00000360: b2cc a9bd a849 9f3c 8411 db3d bbb1 39bc
00000370: e03c 3b3d f847 64bd 0c07 9abd fe16 c13d
00000380: 6bc6 03be b440 ce3a 631c e5bc 2d42 51bd
00000390: cb4c 0dbe aab4 b8bd e8a1 b2bd 28c1 91bc
000003a0: a0b3 473d a9e1 1abe c344 adbd 505c 24be
000003b0: be11 af3d 2bb2 ebbd a8fb 88bc d024 92bc
000003c0: cbb3 b7bd d263 973d 3ffa 5a3d 9f28 813d
000003d0: 8e77 b43d d8ba 7fbd f8b6 773d 6375 823d
000003e0: 6da0 87bd d4f0 0ebd e5d1 e3bc f39f 17be
000003f0: a314 efbc 5457 d7bb ca1e babd 3046 bb3d
0.06962225 0.06257291 0.038635757 -0.03146215 -0.023736915 -0.088336706 0.085245505 -0.081939265
-0.09254362 -0.09921537 0.085077435 0.09041935 -0.08509736 0.10761902 0.044786163 0.03060409
-0.09384371 -0.14556329 0.017712027 0.056255277 -0.17864057 0.07041714 0.07223089 0.0021477193
-0.18545398 -0.10336719 0.06966944 -0.0070540803 -0.02473526 -0.19197452 -0.06353362 0.08388626
0.07015038 0.046865445 0.033987552 -0.07211655 -0.047414612 -0.03615697 -0.08329797 0.14501226
0.07824032 0.017118057 -0.12796786 0.0890892 -0.05045343 0.070890754 0.10420832 -0.03238328
0.044561047 -0.047283676 -0.08148075 -0.03344206 -0.11887734 0.039661363 0.05448411 0.048437126
-0.13839133 0.037069846 0.081819564 0.111619934 -0.042145826 0.037227433 0.053524464 -0.012905086
0.011251822 0.07743943 0.002925827 -0.044662874 0.053861305 0.0041798595 -0.037578367 -0.019870296
0.076289356 0.113668956 -0.033000633 0.092186466 0.11625787 0.07344763 0.057304367 -0.1128422
-0.06353596 -0.061668534 0.12169172 0.016931066 -0.10819986 -0.11622335 -0.103765324 -0.09494694
-0.07973869 -0.06966678 0.08864191 -0.062680736 0.11173642 -0.03733132 -0.10745378 -0.049975846
-0.058426503 -0.09585462 -0.12079977 0.0043563843 -0.1034046 -0.037636373 -0.032855958 -0.07573897
-0.013430625 -0.106803425 -0.042169657 0.1025349 0.10582709 0.001997178 0.029068321 0.101898916
0.11497617 -0.071731284 0.015214568 -0.023601964 -0.089897744 0.10212439 0.090181045 0.0011866875
0.10259927 0.028875357 0.07314533 0.043975327 0.06209555 0.040432844 0.061533734 0.109842435
0.044442184 -0.08873785 0.036469072 0.0730963 0.08106642 0.07233598 -0.050861515 0.092123106
0.012915568 -0.08723111 -0.0046955943 0.084138535 -0.15920763 -0.033248324 0.07737434 -0.058726173
-0.07226579 -0.065391496 0.03854559 -0.10506133 -0.035873804 0.035742052 0.031164095 -0.021346329
0.046457194 -0.016739814 0.07066999 0.03001911 -0.097232565 -0.058539353 0.078731425 -0.03458691
-0.04890099 -0.036827393 -0.041353337 -0.057512663 0.008603283 0.07300539 0.0033056343 0.02034582
0.09069288 -0.13432318 -0.14098266 -0.030570526 0.025588913 -0.02786467 -0.06330975 -0.09568239
-0.012037374 0.0651349 -0.011269304 0.08868367 -0.06434969 0.10296534 -0.092834055 0.055941503
-0.035407208 0.10560897 0.09718186 -0.07669513 -0.0007078876 -0.043946266 0.008012397 -0.07262459
-0.029048711 -0.07576476 0.076127976 0.06138045 -0.002120098 -0.003804192 -0.093754455 -0.12976576
-0.11232574 -0.09720653 -0.10284874 0.05860895 -0.1310306 0.05990173 0.07501631 -0.016386433
0.005878471 0.056528475 -0.11335331 0.08124088 0.08642937 0.1192801 -0.048796743 0.06085556
-0.08290996 0.019444302 0.106967 -0.011333878 0.04571235 -0.055732697 -0.07520875 0.094282135
-0.12868659 0.0015735836 -0.027967637 -0.0510885 -0.13798825 -0.09018834 -0.087222874 -0.0177923
0.048755288 -0.15125145 -0.08460381 -0.1605084 0.08548306 -0.11508592 -0.016721562 -0.01783982
-0.0896984 0.07392086 0.05346131 0.06306576 0.08811866 -0.062434047 0.060477227 0.06370046
-0.06622396 -0.03489764 -0.027810046 -0.1480711 -0.029184645 -0.0065716896 -0.09087904 0.091442466

hidden_layers.2.bias f4 [32]
00000000: 3a1a b73a 8bda 95bd 44a9 3ebd 5858 18be
00000010: 99c0 0ebd b3ad d53e 43b1 5a3f d15d 2a3f
00000020: b996 043f 5668 223f 23e1 90bd 62df abbe
00000030: d57c c53d 65f1 e23e 8d9b 353f 2344 ddbd
00000040: 121f 53bd 657f be3c 999c 3b3d 0c59 093e
00000050: 678d 793e 0827 243f 4408 e7bb 3483 94bd
00000060: 4fcc 193f ece2 e8bd 5c9d 06bd 0de3 963d
00000070: 33a6 87bd ba22 353f bdae 3a3f b4f6 113e
0.0013969608 -0.073170744 -0.046548143 -0.1487745 -0.034851644 0.41734084 0.8542673 0.665494
0.51792485 0.63440454 -0.070741914 -0.33568865 0.096429504 0.44324794 0.70940477 -0.10804012
-0.051543303 0.023254106 0.04580364 0.13412875 0.24370347 0.64122057 -0.007050546 -0.072515875
0.60077375 -0.11371407 -0.032864913 0.07367525 -0.06623497 0.70756114 0.7292288 0.14254266

output.weight f4 [4, 32]
00000000: 0f4b 98bc f9b3 a2bd d91b 84bc 27ed c63d
00000010: 9001 36be faa3 313e 8874 913e ea05 723e
00000020: ca4b 6d3e 2cfe 653e 4a8d f8bc 9f6d a5be
00000030: 2817 d2bd 6bd6 c13d 0ad8 f93d 125e 443d
00000040: f89b 033a c642 dfbd 15a8 6b3d 7977 05bc
00000050: 1fd2 c23d 3fe6 643e 63ea 39bd 34c5 44bd
00000060: 1b35 173e 6773 fe3c 1b7a 71be 88ed f73d
00000070: 0c40 2cbe dcdb a93e 9e06 9b3e 4705 733c
00000080: f5ea 0e3d 4840 493d 434a bfbd 4712 d23a
00000090: 8483 76bd 2f64 8f3e 2f8a 133e 7036 883e
000000a0: 84a8 a93e 181f 283e 10ae 1cbe 00d9 81be
000000b0: f791 d43c bfb9 553e 5f61 033e 3c7c 513d
000000c0: 214e 1f3d 1e7d 9f3d 4ca8 9d3c b54c 173e
000000d0: 66c6 983d 749a 8c3e a798 1b3e 63a0 e9bc
000000e0: 7812 bd3e 9861 30bd 6f7c 59be 04a2 d73d
000000f0: 4438 e53d 6bb4 5b3e 2af1 073e 888d 053e
00000100: f2cc 12be fa49 f2bd 22e6 3c3d d99b 803c
00000110: f572 133d 66d6 063e 0cb9 b93e f76c 193e
00000120: d863 1c3e 80ea 5e3e 43af 66bd 8fb7 a6be
00000130: 7338 22be d14e cc3d bd85 723e 8a5b 1f3e
00000140: ae95 21be 21c5 9f3d 45db 5ebd adec dd3d
00000150: e29a 7cbc 340f a93e c64f 023e f416 da3d
00000160: f6d8 343e c8a2 9d3d 2940 86be 0515 82be
00000170: fbd6 efbd 38ac 473e 200a 813e 0e27 543d
00000180: aaa8 23be 4139 153d 101b 9dbc 8378 4ebd
00000190: 7074 9ebd 54d0 f63d 9eda 873e 6b7b a23e
000001a0: d417 413e a538 203e 060a 003b 0882 8abe
000001b0: 1b17 363e 1ba1 54bd 275d 4b3e b2f6 dc3d
000001c0: 2d02 b4bd df14 1cbe 85fe b4bd a6f8 d2bd
000001d0: c95d 963d 0df2 283e 934f 7a3d 3aae 7abd
000001e0: fc77 593e 120c aabd 898d 0bbf 27d0 95be
000001f0: dfee ecbd 7d0a 973e b2a2 a53e 9972 293e
-0.018590478 -0.07944483 -0.01612656 0.09713202 -0.17774034 0.17347708 0.2840922 0.23635069
0.23173442 0.2246024 -0.03034081 -0.32310197 -0.10258323 0.09464725 0.12199409 0.047941275
0.00050204946 -0.10901408 0.057533342 -0.00814616 0.09512734 0.22353457 -0.045389544 -0.04803963
0.14766352 0.031060888 -0.23581736 0.12105852 -0.16821307 0.33175552 0.30278486 0.014832801
0.03489204 0.04913357 -0.09340336 0.0016027176 -0.060184017 0.28006122 0.14408182 0.26604033
0.3313638 0.16418111 -0.15300775 -0.2536087 0.025948508 0.20871638 0.12830113 0.05114387
0.03889287 0.07787536 0.01924529 0.14775355 0.074597165 0.27461588 0.15194951 -0.028518861
0.36928153 -0.043061823 -0.21238874 0.10528949 0.111923724 0.21455543 0.1327559 0.13042271
-0.14335993 -0.11830516 0.04611791 0.015699314 0.035998303 0.13167724 0.36273992 0.14982973
0.15272462 0.21769142 -0.056319486 -0.3256192 -0.15841846 0.099759705 0.2368383 0.15562263
-0.15779755 0.07801271 -0.05440833 0.10836158 -0.015417786 0.33019412 0.12725744 0.10648909
0.17660889 0.07697064 -0.26220825 -0.25406662 -0.11710926 0.1949929 0.25203037 0.051795058
-0.15982309 0.036431555 -0.019177943 -0.050407898 -0.077370524 0.12051454 0.2653398 0.31734785
0.18856746 0.15646608 0.0019537224 -0.2705233 0.17782252 -0.051911455 0.19859754 0.10789241
-0.087894775 -0.15242337 -0.08837608 -0.10301332 0.07342107 0.16498585 0.061111044 -0.06120131
0.21237177 -0.083030835 -0.5451284 -0.2926037 -0.115689985 0.2950019 0.3235069 0.16547622

output.bias f4 [4]
00000000: cc60 043f d904 ee3e 451d 263f 8790 223f
0.517102 0.46488073 0.6488841 0.6350178
