dueling_double_dqn/checkpoint_dueling_ddqn.pth (torch_old, 67449 bytes, 13 tensors)

hidden_layers.0.weight f4 [128, 37]
0	0x3e8e4297	0.2778518
1	0xbe7720d8	-0.24133623
2	0xbe8a256b	-0.26981673
3	0xbd0dc24e	-0.03460913
4	0xbef84af4	-0.48494685
5	0x3e0bdf30	0.13659358
6	0xbea0988a	-0.31366378
7	0x3ea03d45	0.31296745
8	0xbe7bad63	-0.2457786
9	0xbb5f1da9	-0.0034044778
10	0x3c52f0a7	0.012874759
11	0xbcad88c0	-0.021183372
12	0xbe2eb3fe	-0.17060849
13	0xbdb3a7b9	-0.08772225
14	0xbe900871	-0.2813144
15	0x3e8471f0	0.25868177
16	0x3deca756	0.11555354
17	0xbdfbe329	-0.12299187
18	0xbec39767	-0.38201448
19	0x3ce35a5f	0.027753053
20	0x3e2f7339	0.17133798
21	0x3e707b44	0.23484522
22	0xbe0bd73a	-0.13656321
23	0xbec9ef70	-0.3944049
24	0x3eb11e6d	0.34593526
25	0xbe92047e	-0.28519052
26	0x3d89d9a2	0.06730963
27	0x3e19d451	0.15022399
28	0xbe864efd	-0.26232138
29	0xbd32fdf8	-0.043699235
30	0xbdd4a8c6	-0.103837535
31	0x3d6683d6	0.056278072
32	0xbd842d96	-0.06454007
33	0x3db0622b	0.08612474
34	0xbda9ef7f	-0.082976334
35	0xbeabc247	-0.3354666
36	0xbcc90866	-0.024540137
37	0xbed951dc	-0.42445266
38	0x3eabe967	0.3357651
39	0x3db778e2	0.089586034
40	0x3e23fb9a	0.16013947
41	0xbe820ba6	-0.25399512
42	0xbd4ad0d9	-0.04951558
43	0xbe08f6f8	-0.13375461
44	0x3d875d33	0.06609573
45	0xbefa80a0	-0.48926258
46	0x3e14df67	0.14538346
47	0x3eaae7fe	0.3338012
48	0x3d00841a	0.031375982
49	0xbe36fdb3	-0.17870216
50	0x3d0b883c	0.03406547
51	0x3eccca86	0.39998263
52	0x3e724a54	0.23661166
53	0x3bd2734a	0.006422435
54	0xbc80d237	-0.015725238
55	0x3c8ac8b4	0.016941406
56	0xbe2f4d97	-0.17119442
57	0x3d8ca41f	0.06867241
58	0xbd529a28	-0.051416546
59	0xbe518ee0	-0.20464659
60	0x3dc5fca2	0.096673265
61	0x3e03f5d5	0.12886746
62	0xbde2705b	-0.11056586
63	0x3e07999e	0.13242194
64	0x3e08784a	0.13327137
65	0x3d3007d4	0.042976215
66	0x3c81ba1e	0.015835818
67	0x3e0fba7c	0.14035982
68	0xbe640b54	-0.22269946
69	0x3e9115aa	0.2833684
70	0x3e2fe67b	0.17177765
71	0xbeb32b56	-0.34994
72	0xbcb719d3	-0.022351181
73	0xbcafbec3	-0.021453267
74	0x3df6fd54	0.12060037
75	0xbcaa7762	-0.02080888
76	0x3e34681d	0.17617841
77	0x3cbefc98	0.023313805
78	0xbd2b6aee	-0.041850023
79	0xbf835ef8	-1.0263357
80	0x3e3432a2	0.1759744
81	0x3f06d88b	0.5267417
82	0xbefaf6d6	-0.49016446
83	0xbfb41ef5	-1.4071947
84	0x3d80efcc	0.062957376
85	0x3da33f94	0.07971111
86	0x3db9ffd8	0.090820014
87	0xbdef1336	-0.11673586
88	0xbd9c30da	-0.07626505
89	0xbccd4230	-0.025055975
90	0x3d4cdf25	0.050017495
91	0x3e8c08bf	0.27350423
92	0xbd01ade9	-0.031659994
93	0xbe1a64b6	-0.1507748
94	0xbe97b4b8	-0.29630065
95	0xbd07e39c	-0.03317605
96	0x3e2bc90b	0.1677591
97	0xbe1c6bed	-0.15275545
98	0xbef7816e	-0.48340935
99	0xbd8a5413	-0.06754317
100	0x3eaeb636	0.3412339
101	0x3e4fe518	0.20302236
102	0xbe8a229f	-0.2697954
103	0xbeaea8d6	-0.34113187
104	0xbf0a8ad5	-0.5411809
105	0x3e93d8eb	0.28876433
106	0xbcfac7de	-0.030612882
107	0xbe92070d	-0.28521004
108	0xbf64fa72	-0.8944465
109	0xbd07a4ef	-0.033116277
110	0x3c2dd07c	0.010608789
111	0x3ed1adee	0.4095301
112	0xbe02315c	-0.12714142
113	0x3ddfeb6d	0.10933576
114	0x3d4ff729	0.05077282
115	0xbf19b7ce	-0.6004609
116	0xbe201c85	-0.1563588
117	0x3e57a4eb	0.21059005
118	0x3deead0b	0.11654099
119	0x3d7bf754	0.061515167
120	0xbe13e8c9	-0.14444269
121	0x3d8de32c	0.06928095
122	0x3c5caeb6	0.013469389
123	0x3e4594ab	0.19294994
124	0xbc9f1888	-0.019420877
125	0xbed1c3c5	-0.40969673
126	0xbdcb710f	-0.099336736
127	0xbd22a131	-0.039704505
128	0x3cd1f956	0.025631588
129	0x3d98f56d	0.07468686
130	0xbdcc87dd	-0.09986851
131	0x3e79331b	0.24335901
132	0xbe289a75	-0.1646517
133	0xbe0dee0c	-0.13860339
134	0x3d8db244	0.06918767
135	0xbf2ae9cd	-0.66763
136	0xbe98122b	-0.2970136
137	0x3ddbdac0	0.107350826
138	0x3ea927ad	0.33038083
139	0x3ee6ea61	0.45100692
140	0x3ee68506	0.45023364
141	0x3e915f4d	0.2839302
142	0x3e79c83d	0.24392791
143	0xbe75e529	-0.24013199
144	0xbe857ea0	-0.2607317
145	0xbecb9ffe	-0.39770502
146	0x3d41934f	0.047259625
147	0xbceab7cb	-0.028652092
148	0xbe85df0d	-0.26146737
149	0x3da1a0fa	0.07892032
150	0x3c3c1b9f	0.011481195
151	0x3cf3fbb0	0.0297831
152	0x3d733fd8	0.059387058
153	0x3ecbd04a	0.3980735
154	0x3d3b0367	0.04565754
155	0xbf426dbc	-0.7594869
156	0x3dd0a421	0.10187555
157	0xbf918e96	-1.1371639
158	0x3e8e2e30	0.27769613
159	0xbe30460a	-0.17214218
160	0xbc7846aa	-0.015153566
161	0xbe3ffea8	-0.18749487
162	0xbd22b45b	-0.03972278
163	0xbdcb36bf	-0.09922551
164	0xbdf2dae3	-0.118581556
165	0x3e2218ed	0.15829821
166	0x3dcb374e	0.09922658
167	0xbe18bfdc	-0.14916939
168	0x3e157c70	0.1459825
169	0x3e091d5b	0.13390104
170	0x3dd32f53	0.10311761
171	0xbe39a8ab	-0.18130748
172	0xbc0795c8	-0.008275457
173	0x3e65b537	0.22432409
174	0xbdfb7e4b	-0.12279948
175	0x3c0366d4	0.008020122
176	0x3e61c6c0	0.22048473
177	0x3edae28f	0.42750975
178	0x3e6bf5c7	0.23042975
179	0xbe0b49c1	-0.13602354
180	0xbd0787fc	-0.03308867
181	0xbd8b4b74	-0.06801501
182	0xbbc6ea7b	-0.0060704327
183	0x3c9d44e7	0.019197894
184	0x3c65cb3c	0.014025506
185	0xbd8897ca	-0.066695765
186	0xbca6b3ce	-0.02034941
187	0xbe787206	-0.24262246
188	0xbf120dfb	-0.5705258
189	0x3d9efce5	0.077630796
190	0xbdf2834c	-0.11841449
191	0xbd7997b8	-0.060935706
192	0xbe169786	-0.14706239
193	0xbdd40f85	-0.103545226
194	0xbf246fe2	-0.6423322
195	0xbf056c7c	-0.5211866
196	0x3d1cde73	0.03829808
197	0xbdb468d6	-0.08809058
198	0xbeea5cf1	-0.45774034
199	0xbf21b3f1	-0.63165194
200	0xbe372d09	-0.17888273
201	0x3d72c02f	0.05926531
202	0x3b83453e	0.004006057
203	0xbf484a74	-0.78238606
204	0xbea8431a	-0.32863694
205	0xbe0583d5	-0.13038571
206	0xbe8088eb	-0.2510446
207	0x3d86143b	0.065468274
208	0xbe9140ca	-0.28369743
209	0xbf6bcab9	-0.92106205
210	0xbdc81058	-0.09768742
211	0x3e06cd40	0.13164234
212	0x3e297141	0.16547109
213	0xbf0bbf94	-0.545892
214	0x3d4f0a8d	0.05054717
215	0xbede8e49	-0.4346793
216	0x3d587abd	0.052851427
217	0xbda46eb8	-0.080289304
218	0xbb78750c	-0.0037911562
219	0xbf5b01bd	-0.8554953
220	0xbef0aa81	-0.47005084
221	0x3e20be21	0.15697528
222	0x3ef5eb95	0.48031297
223	0xbf138beb	-0.5763537
224	0xbed6c213	-0.41944942
225	0x3d1e2418	0.03860864
226	0xc017e7b1	-2.3735163
227	0xbb579d87	-0.003290029
228	0xbdfd0751	-0.12354911
229	0x3d610e43	0.05494524
230	0xbe150b27	-0.14555036
231	0x3ba3fe7e	0.005004703
232	0x3e153d9f	0.14574288
233	0x3ddb86b1	0.1071905
234	0x3d987096	0.07443349
235	0x3d7dfc8a	0.06200842
236	0x3de07190	0.1095916
237	0xbebee1e7	-0.37281725
238	0x3d6dafcd	0.058028985
239	0x3e0b43de	0.13600108
240	0x3e78e645	0.24306591
241	0x3edbfdd5	0.42967096
242	0xbe0578a4	-0.13034302
243	0xbcd6ac57	-0.026205225
244	0x3ba08816	0.004899035
245	0x3ce02092	0.02735928
246	0x3e0e8158	0.13916528
247	0xbd85c89a	-0.06532402
248	0x3b49b07b	0.0030775357
249	0x3d296e57	0.041364994
250	0x3d413fc6	0.04717996
251	0x3d8a447b	0.06751343
252	0xbda678f1	-0.081285365
253	0x3cb05f4a	0.021529812
254	0xbba89756	-0.005144994
255	0x3e0508fb	0.12991707

hidden_layers.0.bias f4 [128]
0	0xbda29fe0	-0.0794065
1	0xbe88a4f3	-0.26688346
2	0x3e4d5eae	0.20055649
3	0xbe304124	-0.17212349
4	0xbe4a5505	-0.19758995
5	0xbdb15b5a	-0.08660002
6	0xbca6f87d	-0.02038216
7	0xbd9f0ec9	-0.07766492
8	0xbe071829	-0.1319281
9	0xbd12112a	-0.0356609
10	0xbe4554cd	-0.1927063
11	0xbec0eaf5	-0.37679258
12	0xbe0a3e0a	-0.13500229
13	0xbe6ada58	-0.22934854
14	0x3b940926	0.004517692
15	0xbd914117	-0.07092493
16	0xbd73c497	-0.059513655
17	0xbd5522ca	-0.05203513
18	0xbd72aa27	-0.0592443
19	0x3b8628a6	0.004094201
20	0xbec99f7d	-0.39379492
21	0x3c9f1be1	0.019422473
22	0x3b94785d	0.00453095
23	0xbc964a93	-0.018346107
24	0x3d33af57	0.04386839
25	0x3e3cb08a	0.1842672
26	0xbd1e1ac7	-0.038599756
27	0xbded0542	-0.115732685
28	0xbeae43fe	-0.3403625
29	0xbef4d2ee	-0.47817177
30	0x3d210cc9	0.039318834
31	0x3df56338	0.11981815
32	0xbe1bae3d	-0.15203185
33	0xbe00215d	-0.12512727
34	0x3c2d8e02	0.010592939
35	0xbe9920d2	-0.29907852
36	0xbc93f773	-0.018062329
37	0xbe0c929e	-0.13727805
38	0xbe144899	-0.14480819
39	0xbdc3c8bb	-0.09559771
40	0x3de0b5e1	0.10972191
41	0xbd3ca572	-0.04605622
42	0xbd442366	-0.04788532
43	0xbe4d7bfe	-0.2006683
44	0xbe0a94c3	-0.1353331
45	0xbe81081c	-0.252015
46	0xbde0e5a2	-0.10981299
47	0xbe37bafd	-0.17942424
48	0xbea95fa2	-0.33080775
49	0x3dba36c4	0.09092477
50	0xbd986c8b	-0.07442578
51	0x3e088e1b	0.13335459
52	0xbd735edc	-0.059416637
53	0xbded9b95	-0.116019405
54	0xbe42bbe6	-0.1901699
55	0xbdf9e154	-0.12201181
56	0xbe2e6b78	-0.17033184
57	0xbe101b7d	-0.14072986
58	0xbe6cbbf7	-0.23118578
59	0xbd519722	-0.051169522
60	0xbe6d0456	-0.23146185
61	0xbe48dc44	-0.19615275
62	0x3d82ffc9	0.063964434
63	0xbec0e914	-0.37677824
64	0xb9b8274d	-0.00035124496
65	0xbe097e91	-0.13427188
66	0x3cebf262	0.0288021
67	0xbe77463c	-0.24147886
68	0xbe3fa7d9	-0.18716373
69	0xbdd4a667	-0.10383301
70	0xbe07a942	-0.1324816
71	0xbee5bc3e	-0.4487018
72	0x3e6d6ca2	0.23185971
73	0xbdfa0084	-0.122071296
74	0xbebd0f97	-0.36925957
75	0xbe8e99d7	-0.27851745
76	0xbe143424	-0.14473015
77	0xbe5d0063	-0.21582179
78	0xbe41da94	-0.18931037
79	0xbc3274e4	-0.010892127
80	0x3e2513f2	0.1612089
81	0x3d0c96bf	0.03432345
82	0xbe31bc9e	-0.17357108
83	0xbea2a387	-0.31765386
84	0xbe8f343b	-0.27969536
85	0x3d46c4a6	0.048527382
86	0xbe059fb0	-0.13049197
87	0xbe78628c	-0.24256343
88	0xbe86faf1	-0.26363328
89	0xbe93a111	-0.2883382
90	0xbca6ef2c	-0.020377718
91	0xbdc6d7b3	-0.0970911
92	0xbe4c6dde	-0.19963786
93	0xbe0f0273	-0.13965778
94	0xbdf56268	-0.1198166
95	0xbd2707f9	-0.040779088
96	0xbdb18dbc	-0.08669612
97	0xbe25b27c	-0.16181368
98	0xbe464570	-0.19362426
99	0x3c837f98	0.016052052
100	0xbe2a2695	-0.1661628
101	0xbe14e6f5	-0.14541228
102	0xbcd908c8	-0.026493445
103	0xbd30fd31	-0.043210212
104	0xbee16208	-0.44020104
105	0xbe895f3e	-0.26830477
106	0xbd85f7ce	-0.065414056
107	0xbd74af2c	-0.05973737
108	0xbe49557d	-0.19661517
109	0xbe71b7ed	-0.23605318
110	0x3c3ccf65	0.011524056
111	0xbe44f5c3	-0.19234376
112	0xbbbfca23	-0.005852954
113	0xbed493b9	-0.41518953
114	0xbe14d01d	-0.14532514
115	0xbd5a851a	-0.05334959
116	0xbe1d71b2	-0.15375403
117	0x3d905f21	0.070493944
118	0xbdb207cd	-0.08692894
119	0xbeafd5fc	-0.34342945
120	0xbe3182e9	-0.17335095
121	0xbd3c3388	-0.04594758
122	0xbe2c0e1a	-0.16802254
123	0xbe900728	-0.2813046
124	0x3e142fd3	0.14471368
125	0xbe167f2d	-0.14696951
126	0x3dc3cfbd	0.09561107
127	0xbd1b090f	-0.037850436

hidden_layers.1.weight f4 [64, 128]
0	0xbe106ef7	-0.1410483
1	0xbe676149	-0.22595705
2	0xbefd4e12	-0.49473625
3	0x3da3aac1	0.07991553
4	0xbcc4164e	-0.023936417
5	0x3ca19c64	0.019727893
6	0xbf0240fe	-0.5088042
7	0x3df1d236	0.11807673
8	0x3d061b64	0.032740965
9	0xbe8f2b28	-0.27962613
10	0xbebaf9fa	-0.36518842
11	0x3e2cfd27	0.16893445
12	0x3dfd76b2	0.12376155
13	0xbdfd90a9	-0.12381107
14	0xbe94b0ad	-0.29041043
15	0xbdd99c1a	-0.10625477
16	0x3e45f658	0.19332254
17	0xbe3b8671	-0.18313004
18	0xbecbc4e6	-0.3979866
19	0xbef2d78a	-0.47430068
20	0x3d994ed5	0.07485739
21	0x3d93dae8	0.072194874
22	0xbed66bb5	-0.4187905
23	0x3da65da2	0.08123328
24	0x3c928d53	0.017889654
25	0x3ea5b601	0.3236542
26	0xbd5f285b	-0.054481845
27	0xbf1bd55a	-0.60872424
28	0xbd6c2f30	-0.05766219
29	0xbe5b6669	-0.21425785
30	0xbdcb284d	-0.09919796
31	0xbd76ea2c	-0.060281917
32	0xbe01da47	-0.12680922
33	0xbe23a21c	-0.15979809
34	0x3d1f3d2e	0.038876705
35	0xbec440e1	-0.3833075
36	0x3a245a92	0.00062695995
37	0xbe7f4076	-0.24926934
38	0xbdc8d946	-0.098070666
39	0xbdfa4f31	-0.12222136
40	0x3e2d676b	0.16933982
41	0xbf0a5c28	-0.5404687
42	0x3e9cd698	0.30632472
43	0xbe8fdea5	-0.28099552
44	0xbd828b5a	-0.063742355
45	0xbe5b0514	-0.21388656
46	0xbe1fc405	-0.1560212
47	0x3daf438e	0.08557807
48	0xbeaabafd	-0.33345786
49	0xbea640e3	-0.3247138
50	0xbf2743de	-0.6533793
51	0xbe0fcf3a	-0.14043894
52	0xbeaccf12	-0.33751732
53	0xbdb65e8b	-0.089047514
54	0xbd7e7a01	-0.06212807
55	0xbd9f63ed	-0.07782731
56	0xbe45dc45	-0.19322307
57	0xbe6e2adb	-0.23258536
58	0x3e22c5f0	0.1589582
59	0xbcb53edb	-0.022124698
60	0xbeb8db5e	-0.36104864
61	0xbc9c69d3	-0.01909343
62	0xbeb131cf	-0.34608313
63	0xbd3e6b2d	-0.04648893
64	0xbec008e4	-0.37506783
65	0xbe40f300	-0.18842697
66	0xbe95e00b	-0.29272494
67	0xbeba9616	-0.3644263
68	0xbe392552	-0.18080643
69	0xbdd7b413	-0.10532393
70	0xbccd7518	-0.025080249
71	0xbf1cbb4c	-0.6122329
72	0xbd1aeb37	-0.037821975
73	0xbf011f89	-0.50438744
74	0xbd8feda2	-0.07027747
75	0xbd40c016	-0.047058187
76	0xbf40ff83	-0.7538988
77	0xbd63aa44	-0.0555823
78	0x3cc215f5	0.02369211
79	0x3e75112b	0.2393233
80	0x3dc3169f	0.09525799
81	0xbe6cfa7b	-0.23142426
82	0xbdabfd75	-0.083979525
83	0xbd9a81d6	-0.075442955
84	0x3e4d2acc	0.20035857
85	0xbe570f41	-0.21001913
86	0xbea7feb5	-0.32811514
87	0x3e4ff143	0.20306878
88	0xbb13c439	-0.0022547378
89	0xbb90a6a2	-0.0044143954
90	0xbdee5a25	-0.116382875
91	0xbd23b034	-0.039962962
92	0xbecc81c2	-0.39942747
93	0xbe92d888	-0.28680825
94	0x3dce4f19	0.100736804
95	0xbe9d9f47	-0.3078558
96	0xbe200208	-0.15625775
97	0xbebaf433	-0.36514434
98	0xbcaef686	-0.021357786
99	0xbe2b94c4	-0.16755968
100	0xbe509c6e	-0.20372173
101	0xbe2b5bdb	-0.16734259
102	0xbcef47d6	-0.029209059
103	0x3d91a815	0.07112137
104	0xbe6ad964	-0.2293449
105	0xbdd08440	-0.10181475
106	0x3d981093	0.07425036
107	0xbf563a1c	-0.8368242
108	0x3d2ed001	0.042678837
109	0xbe5d799d	-0.21628423
110	0xbdde9695	-0.10868565
111	0xbe52dbaa	-0.20591608
112	0xbe71ec2a	-0.23625246
113	0x3e31e735	0.17373355
114	0xbe9a999b	-0.30195317
115	0xbc66bd60	-0.014083236
116	0xbe1245a0	-0.14284372
117	0xbe759f22	-0.23986486
118	0x3d083fbc	0.033263907
119	0x3d242396	0.040073
120	0x3e066106	0.13122949
121	0xbe4fa3a5	-0.20277269
122	0xbe425f43	-0.18981652
123	0xbe1e1a37	-0.15439688
124	0xbf0450b2	-0.5168563
125	0xbd90bf24	-0.07067707
126	0x3e16e8f5	0.14737304
127	0xbe81f9f3	-0.2538601
128	0x3bec18d7	0.0072051096
129	0xbd8c8d08	-0.06862837
130	0xbddcd5a9	-0.1078294
131	0xbd529f43	-0.051421415
132	0xbc43ba1e	-0.011946229
133	0xbd721826	-0.05910506
134	0xbd87cf9b	-0.066313945
135	0xbd1bfc48	-0.03808239
136	0x3d4e3d7b	0.0503516
137	0xbd49a699	-0.049231146
138	0xbdc5b451	-0.09653533
139	0x3c5ac687	0.013352997
140	0xbd246504	-0.0401354
141	0xbcbf15ae	-0.023325767
142	0xbea325c7	-0.3186476
143	0xbdf83a3b	-0.121204816
144	0x38e117cf	0.00010733271
145	0x3d423076	0.047409497
146	0x3bbc81f7	0.0057527977
147	0x3d98b00d	0.07455454
148	0xbcad7ef1	-0.021178694
149	0xbd43aca5	-0.04777207
150	0xbddb4234	-0.107059866
151	0xbdc550fd	-0.09634588
152	0xbdc8c08c	-0.098023504
153	0x3ce53c65	0.0279829
154	0x3c39e40e	0.011345876
155	0xbd8f547e	-0.069985375
156	0xbd0bcbb8	-0.03412983
157	0x3c7ff8aa	0.015623251
158	0xbe1a8740	-0.15090656
159	0xbc97182a	-0.01844414
160	0xbdb40317	-0.08789652
161	0xbdd50329	-0.104009934
162	0xbd0ecd58	-0.0348638
163	0x3b93133a	0.004488376
164	0x3c93681f	0.017993985
165	0xbccf64c0	-0.025316596
166	0xbcded405	-0.027200708
167	0xbd657d5f	-0.056027766
168	0xbd93a4c8	-0.07209164
169	0xbd7c15e2	-0.061544307
170	0xbda6216b	-0.08111843
171	0xbdbbd5df	-0.09171652
172	0xbbbc823b	-0.0057528294
173	0xbda6ded1	-0.081479676
174	0xbdd858dc	-0.105638236
175	0x3d37395a	0.04473243
176	0xbda25256	-0.079258606
177	0xbe10fe2a	-0.14159456
178	0x37c703aa	2.3724355e-05
179	0x3aea5f67	0.0017881215
180	0x3d3e4625	0.046453614
181	0xbe53f9f0	-0.20700812
182	0xbb10313d	-0.0022002005
183	0xbb470698	-0.003036892
184	0xbdc779d0	-0.09740031
185	0xbe6f3ce1	-0.23363067
186	0xbe19605e	-0.14978167
187	0x3d33a144	0.043854967
188	0xbd892df0	-0.06698215
189	0xbda11ed7	-0.0786721
190	0xbc546502	-0.012963535
191	0x3e28a06d	0.16467448
192	0xbd85c377	-0.065314226
193	0x3d0966f0	0.033545434
194	0x3ce8c598	0.028414533
195	0x3d8d992f	0.06913983
196	0x3c5bf66d	0.013425452
197	0x3c819b7a	0.015821207
198	0xbd3e57a7	-0.04647031
199	0xbcf80137	-0.030274017
200	0xbcaf1bfd	-0.02137565
201	0xbda33109	-0.07968337
202	0x3e22ab21	0.15885593
203	0xbdbb5de6	-0.09148769
204	0xbd4c974c	-0.049948975
205	0xbd9db4e3	-0.07700517
206	0xbdd926da	-0.106031135
207	0x3db5f86f	0.088852756
208	0xbc8fce2f	-0.01755437
209	0x3cf73055	0.030174414
210	0xbdfb1eee	-0.12261759
211	0xbdf62030	-0.12017858
212	0xbd773f97	-0.06036338
213	0xbd3df579	-0.04637668
214	0x3d8cbc8d	0.06871901
215	0xbd8a0c07	-0.06740575
216	0x3dce64d7	0.100778274
217	0xbd08ad26	-0.033368252
218	0xbd246ebc	-0.040144667
219	0xbd616500	-0.05502796
220	0xbd525360	-0.051349044
221	0xbe044e2d	-0.12920447
222	0xbe1da4ff	-0.15394972
223	0xbe507390	-0.20356584
224	0xbda1efb2	-0.079070464
225	0x3d5ca040	0.053863764
226	0xbd180521	-0.037114266
227	0xbce47f66	-0.02789278
228	0x3de93a1b	0.11388036
229	0x3da22286	0.07916741
230	0xbc517390	-0.0127839
231	0x3c630fb5	0.013858725
232	0xbc39056b	-0.011292796
233	0x3c822b69	0.01588984
234	0x3c7fb32b	0.015606682
235	0x3ca1b8fc	0.019741528
236	0xbe241fde	-0.16027781
237	0xbd3afbba	-0.04565022
238	0xbd208382	-0.039187916
239	0xbda40813	-0.080093525
240	0xbdb6a9d0	-0.08919108
241	0x3db48699	0.08814735
242	0xbe2cc4bc	-0.16871923
243	0xbe38e0c6	-0.18054494
244	0xbe5ab330	-0.21357417
245	0x3de6fa7b	0.11278244
246	0x3c3a203a	0.0113602225
247	0xbd997b33	-0.074942015
248	0xbd848605	-0.06470875
249	0xbd3f8670	-0.04675907
250	0x3c7b116d	0.015323979
251	0xbd9c2039	-0.076233335
252	0x3c561e9f	0.013068824
253	0xba291b1c	-0.0006450878
254	0x3cf78c7d	0.030218357
255	0x38cce034	9.769239e-05

hidden_layers.1.bias f4 [64]
0	0xbe2bf1dd	-0.16791482
1	0xbe05fc61	-0.13084556
2	0xbe6b9f40	-0.23009968
3	0xbddfd685	-0.10929588
4	0x3ea1787d	0.31537238
5	0x3d05faca	0.032709874
6	0xbdf4c70e	-0.11952029
7	0xbd2d22dd	-0.042269576
8	0xbe89e920	-0.26935673
9	0xbdcfd8aa	-0.10148747
10	0xbd858432	-0.06519355
11	0xbe03cfda	-0.12872258
12	0xbe3bd743	-0.18343835
13	0xbeb258d0	-0.34833384
14	0x3e4be5fa	0.19911948
15	0x3dfa66f6	0.122266695
16	0x3d99f2c8	0.0751701
17	0xbd459a91	-0.04824311
18	0xbe94789d	-0.2899827
19	0xbe297776	-0.16549477
20	0xbdac209d	-0.08404658
21	0xbe12e15a	-0.14343777
22	0xbe9a3095	-0.3011519
23	0xbca47823	-0.020076817
24	0xbdf2e85a	-0.11860724
25	0x3e77aee4	0.24187809
26	0xbe1c41df	-0.15259503
27	0xbe9e93b0	-0.30972052
28	0xbdf00234	-0.1171917
29	0xbd8497e9	-0.06474287
30	0xbcb202a1	-0.02172977
31	0xbd7dc2b2	-0.061953254
32	0xbd784a57	-0.06061777
33	0x3da74175	0.08166782
34	0x3dc1e250	0.09466994
35	0xbd867e1c	-0.06567022
36	0x3ddf093c	0.10890433
37	0xbe602808	-0.2189027
38	0x3d04bfed	0.032409597
39	0xbe566889	-0.20938314
40	0xbd0cb0bb	-0.03434823
41	0xbe04c936	-0.12967381
42	0xbddcca7a	-0.10780807
43	0x3e312a27	0.17301236
44	0xbdbb4fd7	-0.091460876
45	0xbd286ade	-0.04111754
46	0xbd4f0419	-0.050541017
47	0xbe1b76fc	-0.15182108
48	0x3d7c5a82	0.061609752
49	0x3d6d6fa5	0.0579678
50	0xbcc9e701	-0.024646284
51	0xbdd764ee	-0.10517298
52	0xbe463db3	-0.19359474
53	0xb9b6ced4	-0.00034867844
54	0xbe435e78	-0.19079006
55	0xbe8c0dfc	-0.2735442
56	0xbdc57977	-0.09642308
57	0x3df1cdf1	0.11806858
58	0xbc72ac6b	-0.014811615
59	0xbe9434b2	-0.28946453
60	0xbd69135f	-0.05690324
61	0xbe52d342	-0.20588401
62	0x3dae633a	0.0851502
63	0xbe5d4e0a	-0.21611801

hidden_layers.2.weight f4 [32, 64]
0	0x3b3097a3	0.0026945851
1	0x3d7afee4	0.06127824
2	0xbe28ab3d	-0.16471572
3	0xbe7b1eab	-0.24523418
4	0x3d8f57d1	0.069991715
5	0xbe57df57	-0.21081291
6	0x3dee2edf	0.11630034
7	0xbdaf37d0	-0.08555567
8	0x3d34aeeb	0.044112127
9	0x3e0e3201	0.13886262
10	0x3c4a6c95	0.01235499
11	0x3ee991ea	0.45619136
12	0xbb2a06c0	-0.0025943965
13	0xbea1c7c6	-0.31597728
14	0xbeac9b17	-0.33712074
15	0xbe29c802	-0.16580203
16	0xbe4a8434	-0.19776994
17	0xbe7778d5	-0.24167188
18	0x3e92c7af	0.28667971
19	0xbf0d6011	-0.5522471
20	0xbeb1cd01	-0.34726718
21	0x3d0beb99	0.03416023
22	0xbe920db4	-0.2852608
23	0x3cc842d3	0.024445927
24	0xbf43cfe4	-0.7648909
25	0xbf3100bd	-0.6914175
26	0xbeb4968f	-0.35271117
27	0xbef2600d	-0.47338906
28	0xbd949eeb	-0.07256874
29	0xbf242696	-0.6412138
30	0xbf65f231	-0.8982268
31	0x3c5ea033	0.013587999
32	0xbf5e7e83	-0.8691179
33	0xbe5a9f33	-0.21349792
34	0xbf2a5429	-0.6653467
35	0xbf2c7118	-0.6736007
36	0xbefe0513	-0.49613246
37	0xbe58ec38	-0.2118386
38	0xbea3afb7	-0.31969997
39	0xbdada26b	-0.084782444
40	0x3d838a49	0.0642286
41	0xbc97affa	-0.01851653
42	0xbd8e92a8	-0.06961566
43	0x3e4dd13c	0.20099348
44	0xbeb1b6c0	-0.3470974
45	0xbd0e1a3c	-0.034692988
46	0xbc16f2d5	-0.009213169
47	0xbd0facc4	-0.03507687
48	0x3e1fb0bd	0.15594764
49	0xbe244d78	-0.16045177
50	0xbf28e7f0	-0.6597891
51	0xbe18efc4	-0.14935213
52	0xbe46a3df	-0.1939845
53	0xbd7732eb	-0.060351294
54	0xbe9fdb25	-0.31221882
55	0xbf33d65b	-0.70248955
56	0xbe90d311	-0.2828603
57	0xbe088495	-0.13331826
58	0x3e3f32a6	0.18671665
59	0xbef8f922	-0.48627573
60	0xbf04033e	-0.5156745
61	0xbefd41e2	-0.49464327
62	0x3ed3282a	0.4124158
63	0xbeac9715	-0.33709016
64	0xbd404be6	-0.046947382
65	0x3d304199	0.04303131
66	0x3d55cb3b	0.05219577
67	0x3dfdcf9c	0.12393114
68	0x3e234c12	0.15946987
69	0x3d9a9f2e	0.07549892
70	0xbc612789	-0.013742336
71	0x3ded3821	0.11582971
72	0xbca22cdf	-0.019796787
73	0x3f3fbf50	0.74901295
74	0xbdce326e	-0.100682124
75	0x3f093175	0.5359109
76	0x3e366eaf	0.1781566
77	0x3e1d48d2	0.1535981
78	0x3da65042	0.08120777
79	0xbde0617d	-0.109560944
80	0x3eae0239	0.3398607
81	0xbd93a5da	-0.07209368
82	0x3daf2ed8	0.085538566
83	0x3e549b7c	0.20762438
84	0xbf46bee5	-0.7763503
85	0xbe78c06a	-0.2429215
86	0xbc168fbc	-0.009189542
87	0xbdc43888	-0.09581095
88	0xbb1602c3	-0.002288983
89	0xbd904865	-0.07045058
90	0x3dd776c0	0.10520697
91	0x3d384fb2	0.04499788
92	0x3e0a722c	0.13520116
93	0xbf105ab4	-0.563884
94	0x3d9af92d	0.07567058
95	0x3d5627f7	0.052284207
96	0xbbf5202f	-0.007480643
97	0x3eb4a44d	0.35281602
98	0x3d6dc64d	0.058050442
99	0x3b8e29b5	0.004338468
100	0xbe09d97a	-0.13461867
101	0x3dabc4a6	0.08387117
102	0x3d3e5676	0.046469174
103	0xbe2dc605	-0.1697007
104	0x3e8448a2	0.25836664
105	0xbe8f0c85	-0.2793924
106	0xbf970a7e	-1.1800077
107	0x3da53b58	0.080679595
108	0x3e90ce79	0.28282526
109	0xbc76356b	-0.015027384
110	0x3dadf059	0.08493108
111	0x3da9c081	0.0828867
112	0x3f36493f	0.71205515
113	0xbe8e8dfb	-0.27842698
114	0xbe80cdd0	-0.25157022
115	0xbdab4cff	-0.08364295
116	0x3e4ff17c	0.20306963
117	0x3dc5b361	0.096533544
118	0x3d8324f2	0.06403531
119	0x3dddb099	0.10824699
120	0x3e0f1391	0.13972308
121	0xbd995649	-0.07487161
122	0x3ea438ba	0.3207453
123	0x3e571b21	0.21006443
124	0x3e08bf67	0.13354264
125	0xbeda7d35	-0.4267365
126	0x3f260c70	0.6486273
127	0x3e447e4c	0.19188803
128	0xbe509293	-0.20368414
129	0xbd8cf586	-0.068827674
130	0xbd3be7f7	-0.045875516
131	0xbd9f2730	-0.07771146
132	0x3dbb38f8	0.09141725
133	0x3da6c0f4	0.08142272
134	0x3d6346d3	0.055487465
135	0x3db5e0fc	0.08880803
136	0x3d15f4c4	0.03661038
137	0xbf1fc0fd	-0.6240385
138	0x3dc07e5e	0.09399103
139	0xbe2f838f	-0.1714003
140	0xbe5f2213	-0.21790342
141	0xbdb6e6c6	-0.08930735
142	0x3e05429c	0.1301369
143	0xbc1c7923	-0.009550366
144	0xbe99b40f	-0.30020186
145	0x3e12fabf	0.14353465
146	0x3dfbab9e	0.12288593
147	0xbe6dd940	-0.23227406
148	0x3dee372a	0.116316155
149	0xbd29139d	-0.04127847
150	0x3b159e5f	0.0022829992
151	0x3b9550d9	0.004556757
152	0x3c2bde4c	0.010490011
153	0x3dad1fe6	0.0845335
154	0x3dee94a2	0.11649443
155	0x3d0d6c73	0.034527253
156	0xbd5c866d	-0.053839136
157	0xbd1485cd	-0.036260415
158	0x3de48678	0.111584604
159	0xbec61b68	-0.38692784
160	0xbd3eab5d	-0.046550144
161	0xbf0d3fc2	-0.5517541
162	0xbd57ccc2	-0.052685507
163	0xbd3eb537	-0.04655954
164	0xbdab2673	-0.08356943
165	0x3e1bd292	0.15217045
166	0x3d95f3e5	0.0732191
167	0xbb4cebda	-0.0031268508
168	0xbec04568	-0.37552953
169	0xbe348530	-0.17628932
170	0xbee546e3	-0.44780645
171	0xbd7c4ee5	-0.061598677
172	0x3d85c2ef	0.06531321
173	0xbc5c753d	-0.013455686
174	0xbeea00ed	-0.4570383
175	0xbd88624e	-0.06659375
176	0xbf1e7eb4	-0.61912084
177	0xbe6e13d9	-0.23249759
178	0x3c769e93	0.0150524555
179	0x3e026554	0.12733966
180	0xbd56757e	-0.052358143
181	0x3dddb1fe	0.10824965
182	0xbdefde29	-0.117122956
183	0x3dea0e64	0.11428526
184	0x3d0456f0	0.032309473
185	0x3e055dcf	0.13024066
186	0xbe293772	-0.16525057
187	0x3cd37c52	0.025816116
188	0xbd560293	-0.05224855
189	0xbe1ff953	-0.15622453
190	0xbdb4c525	-0.08826665
191	0xbe22f536	-0.15913853
192	0xbd879651	-0.066204675
193	0xbc3a8666	-0.011384582
194	0x3ce23538	0.027613267
195	0x3e33058f	0.17482589
196	0xbde0c756	-0.1097552
197	0xbdb27237	-0.08713191
198	0xbda824f3	-0.082101725
199	0xbd18db97	-0.037318792
200	0x3bb3353f	0.005468994
201	0xbe0239fe	-0.12717435
202	0xbdaa62e8	-0.08319646
203	0xba6dda1f	-0.0009073335
204	0xbe675b2f	-0.22593378
205	0x3c64ff0d	0.0139768245
206	0xbdb9b5b7	-0.090678625
207	0x3ca2f9ae	0.019894447
208	0xbe360983	-0.17777066
209	0x3deacb6a	0.114645794
210	0xbe8edbe3	-0.27902135
211	0x3cfec67c	0.031100504
212	0x3e07df1c	0.13268703
213	0x3e34a0f2	0.17639521
214	0x3cd7b7d2	0.02633277
215	0x3d79bfca	0.06097392
216	0xbe12709b	-0.14300768
217	0x3ba5ff5b	0.005065841
218	0x3e4b6860	0.19864035
219	0x3dae8c15	0.08522812
220	0x3dd20ea0	0.10256696
221	0xbdfa5b35	-0.122244276
222	0xbe0853de	-0.13313243
223	0x3d48977d	0.048972595
224	0xbed5df30	-0.4177184
225	0xbb6e7904	-0.003638805
226	0x3d897de6	0.06713466
227	0xbde1d27d	-0.110264756
228	0xbddb89e9	-0.10719664
229	0xba896828	-0.0010483311
230	0xbd842774	-0.064528376
231	0xbd18589a	-0.037193872
232	0x3d47b3a0	0.048755288
233	0xbe43a891	-0.19107272
234	0xbd4c57c5	-0.04988839
235	0xbe5ea4c7	-0.21742545
236	0xbd544a13	-0.051828455
237	0xbd685839	-0.05672476
238	0xbd251849	-0.040306363
239	0xbd095259	-0.0335258
240	0xbdc3c325	-0.09558705
241	0x3de6929b	0.112584315
242	0xbc1c5660	-0.009542078
243	0x3d3bca23	0.04584707
244	0x3e8b9b21	0.2726679
245	0x3c8363a4	0.016038723
246	0xbd28b3d1	-0.04118711
247	0xb81b49c0	-3.7023565e-05
248	0xbd35fd9d	-0.044431318
249	0xbddfc9de	-0.10927175
250	0xbcc64b39	-0.02420579
251	0xbd81c60a	-0.06336601
252	0xbe0860d8	-0.13318193
253	0x3d9d2032	0.076721564
254	0xbdd9e08a	-0.106385306
255	0x3d8b3864	0.06797865

hidden_layers.2.bias f4 [32]
0	0x3e61a097	0.22033916
1	0xbe8df088	-0.27722573
2	0x3ea6982b	0.3253797
3	0xbe4a55af	-0.19759248
4	0xbd44775f	-0.047965404
5	0xbe88aa58	-0.26692462
6	0x3dbb2d87	0.09139543
7	0x3ec3cdbd	0.38242903
8	0xbe815d5d	-0.25266543
9	0x3dcc7732	0.09983672
10	0xbd640107	-0.055665042
11	0xbe49a776	-0.19692788
12	0x3eb986c3	0.36235628
13	0x3ce803d2	0.028322134
14	0x3ecaf643	0.39641008
15	0x3c01b6bf	0.007917105
16	0x3dce57f9	0.10075373
17	0x3ebb3074	0.36560404
18	0x3eb2d628	0.34929013
19	0xbe17eeea	-0.14837232
20	0xbdbdc30f	-0.0926572
21	0x3d8124cb	0.06305846
22	0x3e9a163c	0.30095088
23	0xbe4b1e31	-0.19835736
24	0x3e3366ef	0.17519735
25	0x3dbf4f47	0.09341293
26	0x3eb420cb	0.3518127
27	0x3e05fd81	0.13084985
28	0xbdde4f09	-0.108549185
29	0x3e6112a0	0.21979761
30	0x3d99a4f0	0.075021625
31	0xbd8e10d0	-0.069368005

advantage1.weight f4 [16, 32]
0	0x3d6ab508	0.05730155
1	0xbdcaae94	-0.098965794
2	0xbd7bb775	-0.061454255
3	0x3db61f76	0.088927194
4	0xbe647b85	-0.22312744
5	0x3d22ff9c	0.03979455
6	0x3d7b83ca	0.06140498
7	0x3c4be4bc	0.012444671
8	0x3dc95545	0.09830717
9	0x3de98e1d	0.11404059
10	0xbd573ea3	-0.05254997
11	0xbdd5a287	-0.1043139
12	0xbe14486d	-0.14480753
13	0x3ccf0642	0.025271539
14	0xbe182e08	-0.1486131
15	0x3c16dc49	0.0092077935
16	0xbcce3950	-0.025173813
17	0xbe1cf557	-0.15327965
18	0x3ced98f2	0.029003594
19	0xbdbff227	-0.09372359
20	0x3c968666	0.018374633
21	0x3d912853	0.07087769
22	0xbd90e3df	-0.07074713
23	0xbd44c534	-0.04803963
24	0xbd1f9ccc	-0.038967893
25	0xbd206483	-0.039158355
26	0x3c2776b9	0.010221177
27	0x3db8c958	0.09022778
28	0xbe21b711	-0.1579249
29	0x3e21ff2f	0.15820001
30	0x3e04b652	0.12960175
31	0xbdc0676c	-0.09394726
32	0x3e927d1c	0.28611076
33	0x3cd99bf9	0.026563631
34	0xbd323ce8	-0.043515116
35	0x3ce17610	0.027522117
36	0xbf0caea4	-0.5495398
37	0x3c149235	0.009068062
38	0x3eba2bc8	0.36361527
39	0xbda281a4	-0.07934883
40	0x3ed7c402	0.4214173
41	0xbbe57b45	-0.0070032203
42	0xbea3a1cc	-0.3195938
43	0x3d82bcdd	0.06383679
44	0x3cd69f1b	0.026198914
45	0x3cd8ba61	0.02645606
46	0x3dbe113c	0.09280631
47	0xbda5b91c	-0.080919474
48	0x3c8fe573	0.017565465
49	0x3d8b41a5	0.0679963
50	0x3db0491c	0.086076945
51	0x3df24198	0.11828917
52	0xbd1dcaf2	-0.03852362
53	0x3ef09c37	0.46994182
54	0x3e5e272e	0.21694633
55	0x3d24ef2e	0.040267162
56	0x3f341474	0.7034371
57	0xbeb50f9f	-0.3536348
58	0x3cb2b7aa	0.021816093
59	0xbcf35d84	-0.029707678
60	0x3df97cb9	0.12181992
61	0xbdafdbab	-0.0858682
62	0xbdc87f96	-0.0978996
63	0x3e65ec2b	0.22453372
64	0xbe92b950	-0.28657007
65	0xbe3ab6a3	-0.18233733
66	0x3dd79a3e	0.10527466
67	0xbd180774	-0.037116483
68	0x3e1f1ecd	0.15539093
69	0x3e541621	0.20711567
70	0x3f134f9c	0.5754335
71	0xbe4cd079	-0.20001401
72	0x3e49f27f	0.19721411
73	0xbeae547e	-0.34048837
74	0x3ecc694b	0.39924082
75	0xbea73700	-0.3265915
76	0xbec01c04	-0.37521374
77	0xbe3faa9d	-0.18717428
78	0x3e1af680	0.15133095
79	0xbe95a5ed	-0.29228154
80	0xbe58cbd3	-0.21171503
81	0x3d822760	0.063551664
82	0xbda410a3	-0.08010986
83	0x3e1c1760	0.15243292
84	0x3da0f993	0.078601025
85	0xbf3ca471	-0.7368842
86	0x3e6599fa	0.22422019
87	0xbe151cc4	-0.14561754
88	0xbf50b480	-0.8152542
89	0x3f4ebf9c	0.8076112
90	0x3d6ff19c	0.058580026
91	0x3e00e1b6	0.12586102
92	0xbe480d9e	-0.19536445
93	0xbd784800	-0.06061554
94	0xbcc04d96	-0.023474496
95	0xbe1e7115	-0.15472825
96	0xbe27150f	-0.16316627
97	0x3c8d4d78	0.017248854
98	0xbd4e760f	-0.05040556
99	0xbd944a49	-0.07240731
100	0xbdd4b966	-0.103869244
101	0xbd95c319	-0.073126025
102	0x3d985aa0	0.0743916
103	0x3c272959	0.010202729
104	0xbd55fdb9	-0.052243922
105	0xbda578f4	-0.080797106
106	0x3ac82200	0.0015268922
107	0xbe07696c	-0.13223809
108	0x3e141bc5	0.14463718
109	0xbe016392	-0.1263564
110	0x3d405275	0.046953637
111	0xbe1d3f1c	-0.15356106
112	0xbe0156f4	-0.12630826
113	0xbe5218b3	-0.20517235
114	0xbdfe71a4	-0.12424019
115	0xbe1bdad2	-0.15220192
116	0xbdcc028b	-0.099614225
117	0xbd1b8130	-0.037965
118	0x3cce4fb6	0.025184494
119	0xbd9dd14c	-0.07705936
120	0x3d957a44	0.07298711
121	0xbe00c1ed	-0.12573977
122	0xbe38b810	-0.18038964
123	0xbe204590	-0.15651536
124	0xbe155416	-0.14582857
125	0x3d0848ff	0.03327274
126	0x3e03144d	0.12800713
127	0x3d878680	0.06617451
128	0x3ead37b6	0.33831567
129	0x3e850591	0.2598081
130	0xbdb137ac	-0.08653197
131	0x3d373da8	0.044736534
132	0xbd4634a9	-0.048390064
133	0x3e95b56f	0.29239985
134	0xbd9bfa0b	-0.07616051
135	0x3e118e6f	0.1421449
136	0xbec263e1	-0.37966827
137	0x3f14cee4	0.5812819
138	0x3f33685d	0.7008112
139	0xbe506f9b	-0.20355074
140	0xbf110fa1	-0.5666447
141	0xbe9e115a	-0.30872613
142	0xbd5eed1d	-0.054425348
143	0xbeb60be5	-0.3555595
144	0xbef8d773	-0.48601875
145	0xbea79a18	-0.32734752
146	0xbd94bc5d	-0.0726249
147	0x3e019f1a	0.12658349
148	0x3dc5c5da	0.09656878
149	0xbd84ad0c	-0.064783186
150	0xbf523115	-0.82106143
151	0x3dfdf6ac	0.124005646
152	0xbe9ef026	-0.31042594
153	0x3d196c8d	0.037457038
154	0xbe0fd2e0	-0.14045286
155	0xbe9d24c5	-0.30692115
156	0xbd0ea73d	-0.03482746
157	0xbf14cdd8	-0.5812659
158	0x3cbcafe0	0.023033082
159	0xbcf6c040	-0.030120969
160	0xbca1907d	-0.019722218
161	0xbdccedf9	-0.10006327
162	0x3cad796c	0.021176063
163	0xbe10fee7	-0.14159738
164	0x3c5c9241	0.013462604
165	0xbea65a4b	-0.32490763
166	0x3e553521	0.20821048
167	0xbd8ff593	-0.070292614
168	0x3e12868e	0.14309141
169	0x3cb6bb88	0.022306219
170	0xbe05ffa7	-0.13085805
171	0xbe95f6b5	-0.29289785
172	0x3da5774f	0.08079397
173	0x3d36b172	0.04460282
174	0x3e080924	0.13284737
175	0xbe22c648	-0.15895951
176	0xbe0ecb60	-0.13944769
177	0xbe152979	-0.14566602
178	0xbd57f692	-0.052725382
179	0xbe16a266	-0.14710388
180	0x3da5e7a7	0.08100825
181	0xbdbd37ba	-0.092391446
182	0x3e110436	0.14161763
183	0x3e31d37a	0.17365828
184	0xbe3d6b39	-0.18497933
185	0x3dc079fa	0.09398265
186	0xbe300e8f	-0.17193054
187	0xbc4bd64e	-0.012441231
188	0x3cdc1202	0.026864056
189	0x3e1d5cd4	0.15367442
190	0xbe157892	-0.14596775
191	0xbe38d6bd	-0.18050666
192	0xbf820fff	-1.0161132
193	0xbf09fa7b	-0.5389783
194	0xbdd24889	-0.10267741
195	0xbc1a3ec6	-0.00941438
196	0x3eb5d298	0.35512233
197	0x3ed1d4fa	0.409828
198	0xbc71c0fd	-0.014755485
199	0xbd8c5f07	-0.068540625
200	0x3da403bd	0.080085255
201	0xbde185f7	-0.1101188
202	0xbf89844d	-1.07435
203	0xbe165976	-0.14682564
204	0x3ebd72ec	0.3700174
205	0xbe18d345	-0.14924343
206	0xbd3452b9	-0.044024203
207	0xbf52e130	-0.8237486
208	0xbf0a1dd1	-0.53951746
209	0x3d025404	0.031818405
210	0xbd9ff9dc	-0.07811329
211	0x3dbb87e7	0.09156781
212	0xbc58fd98	-0.013244055
213	0xbe51d1e6	-0.20490226
214	0x3e93dbcf	0.28878638
215	0x3ea81eb0	0.32835913
216	0xbe77a7f5	-0.24185164
217	0x3daac354	0.08338037
218	0xbe8b78dc	-0.27240646
219	0xbdb46f73	-0.0881032
220	0x3e36e3cb	0.17860334
221	0xbd214f2c	-0.039382145
222	0xbebc9b12	-0.3683706
223	0xbd93217e	-0.071841225
224	0xbed483a9	-0.415067
225	0xbe640ade	-0.2226977
226	0xbe3dc703	-0.18532948
227	0xbc86c51c	-0.016451411
228	0x3ea9c203	0.33155832
229	0x3e20d804	0.15707403
230	0x3d99cbc7	0.075095706
231	0xbe488c60	-0.19584799
232	0x3e5c7f70	0.21532989
233	0xbd9e7a90	-0.07738221
234	0xbefeeca9	-0.49789932
235	0x3d3becf9	0.04588029
236	0x3e1ae619	0.15126838
237	0x3cbaad2f	0.022787658
238	0x3d41115d	0.0471357
239	0xbf02e764	-0.51134324
240	0xbc6f4951	-0.014604882
241	0xbc934cac	-0.017980896
242	0xbe266c03	-0.1625214
243	0xbd4661aa	-0.048432983
244	0x3d387902	0.045037277
245	0xbeee0b05	-0.46492782
246	0x3ed58ffc	0.41711414
247	0x3e048d80	0.12944603
248	0xbf091031	-0.5354033
249	0x3ec33d20	0.38132572
250	0xbd81141b	-0.06302663
251	0x3dbc224a	0.091862276
252	0x3d4ee3b9	0.050510142
253	0x3e515bde	0.20445201
254	0xbeff46b7	-0.4985864
255	0xbe3b6c66	-0.1830307

advantage1.bias f4 [16]
0	0xbdef7731	-0.11692656
1	0xbeb9199d	-0.36152354
2	0x3e3dafaa	0.18524042
3	0xbe0c6ce7	-0.13713418
4	0x3d70ca35	0.05878659
5	0xbd1348d3	-0.035958122
6	0x3e111d83	0.14171414
7	0x3ea51ba7	0.3224766
8	0x3ef5ded7	0.48021576
9	0xbe239aef	-0.15977071
10	0x3dd26032	0.10272254
11	0x3e87bba0	0.26510334
12	0x3ee29420	0.44253635
13	0xbe494862	-0.19656518
14	0x3d718aef	0.058970388
15	0x3e995a76	0.2995183

advantage2.weight f4 [4, 16]
0	0xbe00e9f9	-0.12589253
1	0x3ebedd82	0.37278372
2	0x3d539008	0.05165103
3	0xbe482efa	-0.1954917
4	0x3f6c0ac2	0.92203915
5	0x3c97ce3a	0.018530954
6	0xbebd0164	-0.36915123
7	0xbeb0e7b0	-0.34551764
8	0xbf64f4a9	-0.8943582
9	0xbdbd2a6c	-0.09236607
10	0x3ced8c3c	0.028997533
11	0x3e8e36ff	0.27776334
12	0x3eae5f33	0.34057006
13	0x3e01dcb1	0.12681843
14	0xbd5c92b1	-0.053850833
15	0x3efe097a	0.49616605
16	0xbd98aed0	-0.07455218
17	0x3d47abfe	0.04874801
18	0xbe1320c1	-0.14367963
19	0xbcd6fccf	-0.026243595
20	0x3ebf7795	0.3739592
21	0x3dd29f39	0.102842756
22	0x3d45aed8	0.048262447
23	0xbdc0697b	-0.09395119
24	0x3f9cf35b	1.2261766
25	0x3e94bec4	0.29051793
26	0x3e0e0e26	0.13872585
27	0x3efd3c1e	0.49459928
28	0x3ef9a5ed	0.48759404
29	0xbe5cfd96	-0.2158111
30	0xbb1cc247	-0.002391951
31	0x3edd6a6c	0.43245256
32	0x3e4eae2b	0.20183627
33	0x3e54808b	0.2075216
34	0xbe4e4028	-0.20141661
35	0x3e4682c9	0.19385828
36	0xbeeaf75f	-0.45891854
37	0xbe18ea63	-0.14933161
38	0xbde14e56	-0.110012695
39	0xbe121a4a	-0.14267841
40	0x3ecd6d0f	0.40122268
41	0xbe4f5e4e	-0.20250818
42	0xbf080c4a	-0.5314375
43	0x3f17423e	0.5908545
44	0x3f871482	1.0553133
45	0xbe14f358	-0.14545953
46	0xbe1978ec	-0.14987534
47	0xbf3d5a8c	-0.7396629
48	0x3dd1a382	0.10236265
49	0xbf118dcd	-0.56856996
50	0x3e1c4fb5	0.15264781
51	0xbe4b1919	-0.19833793
52	0xbea11b55	-0.31466165
53	0x3ea781f4	0.32716334
54	0xbd0242d0	-0.031802
55	0x3e287b86	0.1645337
56	0x3f223fcb	0.6337859
57	0x3dc0ae0a	0.09408195
58	0xbe1a5988	-0.15073216
59	0xbe9f5015	-0.31115785
60	0x3f142754	0.5787251
61	0x3d441534	0.047871783
62	0x3e7ce73c	0.24697584
63	0x3f0f0a37	0.5587496

advantage2.bias f4 [4]
0	0x3e49675a	0.19668332
1	0xbdfd3ea2	-0.12365462
2	0x3e9e7487	0.30948278
3	0xbcc2cbe4	-0.023778863

value1.weight f4 [16, 32]
0	0xbf285795	-0.6575864
1	0xbbe02108	-0.006839875
2	0x3e509532	0.20369413
3	0xbce6e951	-0.028187426
4	0xbefaa2ee	-0.4895243
5	0x3ca4bd69	0.020109849
6	0xbd468211	-0.048463885
7	0x3ea0b1f0	0.31385756
8	0x3df95ebb	0.121762715
9	0xbedfbe8d	-0.43700066
10	0xbf3c65ba	-0.7359272
11	0x3d7282c1	0.059206728
12	0x3d244fe7	0.040115263
13	0xbea618ee	-0.32440895
14	0xbc4cd4b3	-0.012501883
15	0x3e17757d	0.14790912
16	0xbf0b9abe	-0.5453299
17	0x3e51f5bd	0.20503898
18	0xbdab1d17	-0.08355158
19	0x3c267f05	0.01016212
20	0xbcbd2bc4	-0.023092158
21	0xbf0d44ad	-0.55182916
22	0x3e0b0e1c	0.13579601
23	0x3eefd74e	0.46843952
24	0xbd521cf9	-0.05129716
25	0xbf3596d1	-0.7093325
26	0x3e4dd632	0.2010124
27	0x3e293b5a	0.16526547
28	0x3d86ba2c	0.06578478
29	0xbce7beed	-0.028289283
30	0xbf3d21dc	-0.7387979
31	0xbd301d9f	-0.042997
32	0x3f0cf573	0.55062026
33	0x3e6a7658	0.22896707
34	0x3cf076df	0.029353557
35	0xbbf84388	-0.0075764097
36	0x3f1762d2	0.5913516
37	0x3e86af95	0.26305833
38	0x3bd29e92	0.0064275945
39	0xbd3df50f	-0.046376284
40	0x3d9a60be	0.07537983
41	0x3ef0c993	0.4702879
42	0x3f23b135	0.6394227
43	0xbe10af33	-0.14129333
44	0x3e36b533	0.1784256
45	0x3e9db104	0.30799115
46	0xbc1aa3ec	-0.009438496
47	0x3d968cea	0.07351096
48	0x3f4e446d	0.8057316
49	0x3d27281b	0.040809732
50	0xbdb9b282	-0.09067251
51	0x3df6460a	0.12025078
52	0x3d071a0f	0.032983836
53	0x3f0e7a84	0.55655694
54	0x3d8d096a	0.06886561
55	0xbe45b797	-0.19308315
56	0x3b675db3	0.0035303652
57	0x3f0f98d3	0.56092566
58	0x3d8a7467	0.06760483
59	0x3d0ecc83	0.034863006
60	0x3d686ad3	0.0567425
61	0x3e2ea8cd	0.1705658
62	0x3f25af9e	0.64721096
63	0xbdaf7b2d	-0.08568416
64	0xbf0539dd	-0.5204142
65	0xbd250796	-0.040290438
66	0x3e497ae4	0.19675785
67	0x3ca5ceee	0.020240273
68	0xbf0fff05	-0.56248504
69	0xbd8f47ae	-0.06996094
70	0x3c763eb9	0.015029603
71	0x3e9223cd	0.2854294
72	0x3d8b21df	0.0679357
73	0xbec07746	-0.37590998
74	0xbf43c5e4	-0.7647383
75	0x3e019583	0.1265469
76	0xbd159179	-0.036515687
77	0xbe899adc	-0.2687596
78	0x3e6b393e	0.22971055
79	0x3dba211b	0.090883456
80	0xbf2ae5e8	-0.6675706
81	0x3e5baa2c	0.21451634
82	0x3e5e4863	0.21707301
83	0x3cb6619e	0.022263344
84	0x3d94440a	0.0723954
85	0xbf0e623e	-0.55618656
86	0x3e0d3ff3	0.13793926
87	0x3e4bbefd	0.19897075
88	0x3e4c6caa	0.19963327
89	0xbf3f0641	-0.7461892
90	0x3e8967cc	0.26837003
91	0xbd507543	-0.05089308
92	0xbe11ae28	-0.14226592
93	0xbd90946c	-0.07059559
94	0xbf64ca34	-0.8937104
95	0xbdbc1608	-0.091838896
96	0xbf4eb386	-0.8074268
97	0xbdd7c798	-0.10536116
98	0x3c8c88d9	0.017155098
99	0x3d127a94	0.03576143
100	0xbf10ddcc	-0.56588435
101	0xbdf486c9	-0.11939771
102	0x3dc6be2f	0.097042434
103	0x3e4981b4	0.19678384
104	0xbdb6911c	-0.08914396
105	0xbf012893	-0.50452536
106	0xbf04ddaf	-0.5190076
107	0x3bb93fad	0.0056533427
108	0x3da911b9	0.082553335
109	0xbee1948f	-0.44058654
110	0x3bf7912a	0.0075551467
111	0xbdc901da	-0.09814806
112	0xbf170884	-0.5899737
113	0x3e1c839a	0.15284577
114	0x3e28a1b6	0.16467938
115	0x3dddc09e	0.108277544
116	0xbd224bbd	-0.03962301
117	0xbea297a1	-0.3175631
118	0x3de4f6ef	0.11179911
119	0x3e8f2623	0.27958784
120	0xbd67a845	-0.05655696
121	0xbf324111	-0.69630533
122	0x3e818d4f	0.25303122
123	0x3df70e1d	0.12063239
124	0xbdc91374	-0.098181635
125	0xbbfcecf7	-0.007718678
126	0xbf26b6be	-0.6512259
127	0xbd83ed55	-0.06441752
128	0xbf3c3cca	-0.73530257
129	0x3cec7b8b	0.028867504
130	0x3d1e74a0	0.03868544
131	0xbda2aca4	-0.07943085
132	0xbede72c5	-0.43446937
133	0xbd6e6bde	-0.05820834
134	0xbe00fce8	-0.12596476
135	0xbd0ccd2f	-0.034375366
136	0xbdf4fc24	-0.119621545
137	0xbef07841	-0.46966746
138	0xbf2dcf6e	-0.6789464
139	0x3dea2575	0.114329256
140	0x3dabc043	0.083862804
141	0xbe3d3312	-0.18476513
142	0x3df506b6	0.11964171
143	0x39c0f70e	0.00036805164
144	0xbf38a893	-0.72132224
145	0x3d34451e	0.044011228
146	0x3e51ead0	0.2049973
147	0xbd4299b1	-0.047509853
148	0xbde2f1f8	-0.11081308
149	0xbef02d0d	-0.4690937
150	0x3dbb6a12	0.09151091
151	0x3ef548ad	0.4790701
152	0xbcc231b3	-0.023705339
153	0xbf183b2b	-0.59465283
154	0x3d748616	0.059698187
155	0x3db8f109	0.09030349
156	0xbd50b5f2	-0.050954767
157	0xbdeb6cfe	-0.11495398
158	0xbf105236	-0.56375444
159	0xbdde4485	-0.10852913
160	0x3f445396	0.7669004
161	0x3dc34574	0.095347315
162	0xbdbd5857	-0.09245365
163	0xbcf6227e	-0.030045744
164	0x3f222231	0.6333342
165	0x3e2f41ac	0.17114896
166	0xbe127f62	-0.14306405
167	0x3c85a636	0.016314607
168	0x3d738c1d	0.059459794
169	0x3ea288ec	0.31745088
170	0x3f263095	0.6491788
171	0xbe4f1866	-0.20224151
172	0xbe0a6941	-0.13516714
173	0x3e9fdf65	0.31225124
174	0xbe7a3d4a	-0.24437442
175	0xbe5e85ae	-0.21730682
176	0x3f3cb221	0.73709303
177	0xbe1e98e1	-0.15488006
178	0x3d926400	0.0714798
179	0xbe266618	-0.16249883
180	0xbe45e226	-0.1932455
181	0x3eaccfb9	0.3375223
182	0x3b9f65ab	0.0048644147
183	0xbf01a0f9	-0.5063625
184	0x3dacbd54	0.08434549
185	0x3efe577f	0.4967613
186	0xbe02a3ef	-0.12757848
187	0x3d2eaeb1	0.042647067
188	0x3d1295b1	0.035787288
189	0xbe1d4db3	-0.15361671
190	0x3f351ce7	0.70747226
191	0xbe281894	-0.16415626
192	0x3f3e982b	0.7445094
193	0xbd9575f3	-0.07297888
194	0xbdd7f8a8	-0.10545474
195	0xbcd8341d	-0.026392037
196	0x3f2aafb2	0.6667434
197	0x3dbe9570	0.09305847
198	0xbe0de838	-0.13858116
199	0xbdef847e	-0.11695193
200	0xbe457af0	-0.19285178
201	0x3ead8e0b	0.33897433
202	0x3f1eceb6	0.62034166
203	0xbd439f7b	-0.047759514
204	0xbdfb6a1b	-0.122760974
205	0x3ebf41ba	0.37354833
206	0xbd94941f	-0.07254814
207	0x3d8caba9	0.06868679
208	0x3f41167e	0.75424945
209	0x3cda0d0d	0.026617551
210	0xbe5c7635	-0.21529467
211	0xbe2240f3	-0.15845089
212	0xbe5c66d6	-0.21523604
213	0x3ed49e9f	0.41527268
214	0x3dd280e9	0.10278494
215	0xbe7e4868	-0.24832308
216	0xbe384089	-0.17993368
217	0x3f2969ac	0.6617687
218	0x3d137642	0.03600145
219	0x3de88bcc	0.11354789
220	0x3dff2450	0.12458098
221	0xbd09fb9e	-0.033687226
222	0x3f11a9c1	0.5689965
223	0x3cc1e413	0.023668325
224	0x3f3b39ba	0.7313496
225	0x3e16cbf8	0.14726245
226	0xbdf0ab06	-0.1175137
227	0xbd6850a6	-0.056717537
228	0x3ee7ee74	0.45299113
229	0x3e287032	0.16449049
230	0x3d96752a	0.07346566
231	0xbe926199	-0.28590086
232	0xbd341aa9	-0.043970738
233	0x3ed60416	0.41799992
234	0x3f40042c	0.75006366
235	0x3e023b6d	0.12717982
236	0x3dc838d5	0.09776465
237	0x3e5bf2a8	0.21479285
238	0x3d9be17c	0.07611367
239	0xbb7e1213	-0.0038768097
240	0x3f46e043	0.77685946
241	0xbe457ef9	-0.19286717
242	0xbdbe9e4a	-0.09307535
243	0xbe5bfcaa	-0.21483102
244	0x3d60ce13	0.054884028
245	0x3ee84bc7	0.45370314
246	0x3e22951e	0.15877196
247	0xbebcbdc1	-0.3686352
248	0x3d7003a1	0.05859721
249	0x3f4286c8	0.7598691
250	0x3db5a27c	0.08868882
251	0xbdad5a95	-0.08464543
252	0x3d8c31c0	0.068454266
253	0x3d42c268	0.04754868
254	0x3f58ef69	0.8474031
255	0x3d1989d4	0.03748496

value1.bias f4 [16]
0	0x3e6c119c	0.23053592
1	0xbe7fb058	-0.24969614
2	0x3e6434ef	0.22285818
3	0x3ef02b17	0.46907875
4	0x3e78cb0e	0.24296209
5	0xbebdd314	-0.37075102
6	0xbf10c540	-0.5655098
7	0xbe53c966	-0.20682296
8	0xbed3b544	-0.41349232
9	0x3f06dfcb	0.5268523
10	0x3ec80eba	0.39073735
11	0x3ee83c47	0.45358488
12	0x3ef61ec7	0.48070356
13	0xbf0053b6	-0.5012773
14	0xbeec96e7	-0.4620888
15	0xbecb1fc0	-0.3967266

value2.weight f4 [1, 16]
0	0x3e980186	0.29688662
1	0xbdc7ce28	-0.09756118
2	0x3eb609a7	0.3555424
3	0x3ed655de	0.41862386
4	0x3e234bb5	0.15946849
5	0xbed70e3f	-0.42003056
6	0xbeae21db	-0.34010205
7	0xbe5f51bb	-0.21808521
8	0xbed01d6f	-0.40647456
9	0x3e61eed5	0.22063763
10	0x3ed7c876	0.42145127
11	0x3ed0ea8b	0.40803942
12	0x3e95a297	0.2922561
13	0xbed26483	-0.4109231
14	0xbec6552f	-0.38736865
15	0xbe910631	-0.28325036
